lenet300-100/original_parameters/b_layer1.npy (npy, 1280 bytes, 1 tensors)

array f4 [300]
0.042291407 -0.100806 0.36494252 0.16740525 0.053150237 0.048108198 -0.04687942 0.049241558
0.108318724 -0.028611016 0.0074334056 0.05220982 0.012436726 0.021478921 0.06933056 0.011035155
-0.018460115 -0.06069471 -0.045932125 -0.013775183 -0.009684029 0.014005614 -0.093404464 0.103803806
-0.140761 -0.121458 -0.0099202115 -0.013118368 -0.054540366 0.053444266 -0.12130556 -0.07603882
0.13271867 0.07993693 0.038742464 0.1589004 -0.02333742 0.022662008 -0.015770234 0.044795148
-0.0075646774 0.019422842 -0.2636628 0.06825328 0.15239601 -0.0059170527 0.07336022 -0.04902177
0.15981181 0.27266148 0.07605338 -0.15421762 -0.018542422 0.22393595 -0.12214285 -0.008370964
-0.06893638 -0.13406795 -0.045235667 -0.17914613 -0.026776202 -0.13906445 0.06113784 0.1798872
-0.037559077 -0.039347317 0.0037122814 -0.19532785 -0.03194192 -0.05813946 -0.013019951 -0.022393556
-0.045251846 0.028811967 0.13128069 -0.10094096 0.016277416 -0.10268639 0.15364957 0.27859744
-0.008147419 -0.0061869565 -0.048111964 0.0130777825 -0.056719977 -0.027611822 -0.019527068 0.08753884
-0.062189445 -0.18549137 0.23397385 0.039038077 -0.022114549 0.05539046 -0.036388293 -0.010680166
-0.10835001 -0.01519629 -0.08654047 -0.07004821 -0.09120912 -0.05997614 -0.0065977294 0.13448948
-0.0004010152 -0.024897117 -0.042694334 0.092922114 -0.07243601 -0.050113685 0.083265156 0.045835383
0.0011482271 -0.19604348 -0.0124477185 -0.025790663 0.07166464 -0.11625117 -0.011426648 -0.05852236
-0.02487207 -0.05761897 0.1963905 -0.02370802 -0.24762231 -0.09576477 0.25351036 0.0355519
0.06247594 -0.008612567 -0.043274224 0.09403534 -0.019793712 -0.0017401924 -0.019680442 0.012176834
0.13164285 0.024791446 -0.006380187 -0.04768779 -0.06641821 0.15649928 0.07116238 0.15373038
-0.056526497 -0.040169913 -0.06564971 0.09340045 -0.020405928 -0.0762672 0.065917924 -0.09154759
-0.01804137 -0.09026554 0.20950496 -0.026875047 0.15355249 -0.011120343 -0.19802144 0.10542872
0.061139103 0.123877816 0.0125159025 0.25163385 -0.12638181 0.1905379 -0.06137694 0.06933728
0.08811843 -0.08170296 0.031521395 -0.025883066 0.0071823555 -0.0016188271 0.01525375 0.1013933
-0.0078357505 -0.08774533 0.021581164 -0.094884485 -0.030631453 -0.07903968 0.04313537 0.049210332
-0.16933468 -0.021958321 0.019990526 0.070669614 -0.037510853 -0.018493447 -0.07641082 -0.16542038
0.13215683 0.046311367 -0.059406713 0.00017876599 0.17986552 0.095518835 0.14336851 0.05302181
-0.006127064 0.0049983924 0.012219519 -0.061639193 0.09658462 -0.016888723 -0.12662287 -0.099894114
-0.013408284 0.037612136 0.0011607825 -0.038044978 -0.045865186 0.10504002 0.10521106 -0.026065523
-0.18058494 -0.084947266 0.044999287 0.033381585 0.009701387 -0.10458088 -0.2727072 -0.00624746
-0.040669195 -0.2039359 0.02084025 0.23543245 -0.12853526 0.08832149 0.016703658 0.08711693
-0.13914357 -0.0045898864 0.042522974 0.08616844 -0.028041935 0.0669066 0.17401627 0.13181981
-0.1943036 -0.13034405 -0.018802963 -0.0048721037 -0.14550982 -0.090007976 -0.03004293 0.022335
0.14156125 0.17083284 0.07363177 -0.07479882 0.05962936 -0.13437185 -0.0066488506 -0.017456215
00000000: c139 2d3d 6073 cebd bfd9 ba3e 486c 2b3e
00000010: 10b4 593d 1a0d 453d a204 40bd 84b1 493d
00000020: 35d6 dd3d a661 eabc ed93 f33b f7d9 553d
00000030: 69c3 4b3c 90f4 af3c 2efd 8d3d cbcc 343c
00000040: ab39 97bc 049b 78bd 5323 3cbd 4eb1 61bc
00000050: c3a9 1ebc ce77 653c d74a bfbd 1797 d43d
00000060: a723 10be f9be f8bd 6288 22bc 6cee 56bc
00000070: b865 5fbd 60e8 5a3d 0d6f f8bd 3eba 9bbd
00000080: 67e7 073e f9b5 a33d 6bb0 1e3d c9b6 223e
00000090: 1e2e bfbc ada5 b93c 9430 81bc 1e7b 373d
000000a0: 1de1 f7bb a71c 9f3c cffe 86be 60c8 8b3d
000000b0: b30d 1c3e d6e3 c1bb e23d 963d 0dcb 48bd
000000c0: b5a5 233e 499a 8b3e e0c1 9b3d 39eb 1dbe
000000d0: 47e6 97bc 774f 653e 0826 fabd 5e26 09bc
000000e0: 842e 8dbd 1c49 09be 0949 39bd 1572 37be
000000f0: c459 dbbc e966 0ebe ac6b 7a3d 5a34 383e
00000100: 8cd7 19bd a72a 21bd bf49 733b 0604 48be
00000110: 88d5 02bd a423 6ebd a251 55bc b172 b7bc
00000120: 005a 39bd 1307 ec3c 726e 063e 22ba cebd
00000130: 3758 853c 3e4d d2bd 5056 1d3e 53a4 8e3e
00000140: c17c 05bc f4bb cabb 0d11 45bd 3244 563c
00000150: 3553 68bd 3032 e2bc 3bf7 9fbc 9047 b33d
00000160: 5cba 7ebd 73f1 3dbe d796 6f3e 64e6 1f3d
00000170: 9229 b5bc 1be1 623d e40b 15bd ddfb 2ebc
00000180: 9ce6 ddbd dcf9 78bc 213c b1bd 7075 8fbd
00000190: d9cb babd 8aa9 75bd c431 d8bb 9cb7 093e
000001a0: 593f d2b9 0af5 cbbc 41e0 2ebd f34d be3d
000001b0: 5559 94bd 0244 4dbd ec86 aa3d e2bd 3b3d
000001c0: 1c80 963a 9fbf 48be 84f1 4bbc f146 d3bc
000001d0: e9c4 923d 1815 eebd d636 3bbc 24b5 6fbd
000001e0: 83c0 cbbc de01 6cbd 971a 493e 5237 c2bc
000001f0: b490 7dbe 5220 c4bd 1ccc 813e de9e 113d
00000200: c5e6 7f3d b91b 0dbc 5040 31bd 9a95 c03d
00000210: 6c26 a2bc 2b17 e4ba e138 a1bc 5881 473c
00000220: 62cd 063e 6e17 cb3c e310 d1bb 4654 43bd
00000230: 4506 88bd 5941 203e 95bd 913d 7f6b 1d3e
00000240: 5488 67bd 3589 24bd 5b73 86bd bc48 bf3d
00000250: 552a a7bc fa31 9cbd faff 863d 4e7d bbbd
00000260: 7fcb 93bc 24dd b8bd 7888 563e 0f29 dcbc
00000270: dd3c 1d3e 1932 36bc 22c6 4abe 03eb d73d
00000280: ff6c 7a3d a7b3 fd3d 800f 4d3c 27d6 803e
00000290: 3c6a 01be 5e1c 433e 6366 7bbd b400 8e3d
000002a0: 6f77 b43d e253 a7bd 941c 013d b908 d4bc
000002b0: f759 eb3b d32e d4ba ddea 793c 4aa7 cf3d
000002c0: 8561 00bc d3b3 b3bd fbca b03c cc52 c2bd
000002d0: d0ee fabc 8edf a1bd b7ae 303d c690 493d
000002e0: 1266 2dbe f0e1 b3bc 2cc3 a33c 3bbb 903d
000002f0: fba4 19bd 927f 97bc 477d 9cbd f663 29be
00000300: 1f54 073e fdb0 3d3d 7454 73bd 2173 3b39
00000310: ab2e 383e 619f c33d 32cf 123e 662d 593d
00000320: 8ac5 c8bb 8ec9 a33b 6134 483c 6179 7cbd
00000330: 28ce c53d 385a 8abc 6da9 01be 4995 ccbd
00000340: 6bae 5bbc 2f0f 1a3d 6625 983a 0dd5 1bbd
00000350: 22dd 3bbd 391f d73d e578 d73d 5d87 d5bc
00000360: 42eb 38be d5f8 adbd 2c51 383d 21bb 083d
00000370: 91f2 1e3c 802e d6bd 47a0 8bbe 7eb7 ccbb
00000380: be94 26bd 93d4 50be 2cb9 aa3c 3415 713e
00000390: bf9e 03be e6e1 b43d 1cd6 883c 5c6a b23d
000003a0: a77b 0ebe c266 96bb 922c 2e3d 1479 b03d
000003b0: 33b8 e5bc 5406 893d 5231 323e c6fb 063e
000003c0: 86f7 46be e978 05be ac08 9abc 2ba6 9fbb
000003d0: 8700 15be 1a56 b8bd 971c f6bc e4f7 b63c
000003e0: 6ff5 103e ceee 2e3e 41cc 963d 2030 99bd
000003f0: ea3d 743d c698 09be 9ade d9bb 5600 8fbc
