PyTorch/MNIST/LeNet5/pruned_weight/CR_55/fc2.weight.npy (npy, 40128 bytes, 1 tensors)

array (column-major) f8 [10, 500]
00000000: 002c 7a30 8221 b6bf 0080 a1b7 4c05 a3bf
00000010: 0070 b991 63a2 b1bf 0000 4d7a cbe0 a4bf
00000020: 00e0 8ef7 1ad8 af3f 0048 df18 8244 b73f
00000030: 0000 9f95 5b9d c43f 0038 4a94 07e6 b8bf
00000040: 00d8 da01 9314 b33f 00c0 cadf 9453 b9bf
00000050: 0000 d612 16f3 a83f 0000 0000 0000 0080
00000060: 0000 0000 0000 0000 0000 0000 0000 0000
00000070: 0000 0000 0000 0080 0000 0000 0000 0000
00000080: 0000 0000 0000 0000 0000 0000 0000 0080
00000090: 0000 0000 0000 0000 0000 0000 0000 0000
000000a0: 007c 434b 4c81 c03f 0090 1d02 936e c2bf
000000b0: 0008 c181 5873 d03f 00c0 84aa e822 94bf
000000c0: 0000 9ba0 5c01 a5bf 0080 565e 8899 933f
000000d0: 0000 0000 0000 0000 0000 0000 0000 0080
000000e0: 0040 81fc ca65 b9bf 0058 8491 1351 b8bf
000000f0: 0000 0000 0000 0000 0000 020b a716 a4bf
00000100: 0080 e5e0 4cc5 c73f 0080 522a fb68 a0bf
00000110: 0000 8e8e fa84 a1bf 0000 0000 0000 0000
00000120: 0000 0000 0000 0080 0000 0000 0000 0000
00000130: 0000 0000 0000 0080 00c0 c614 69b4 a3bf
00000140: 0000 0000 0000 0000 0080 365a 9aae bf3f
00000150: 0000 6b34 f611 9b3f 0000 0000 0000 0000
00000160: 00c0 827d a297 c23f 0080 5166 78c3 95bf
00000170: 0000 0000 0000 0000 0080 ba01 17b5 bbbf
00000180: 0080 b6b1 e91f c2bf 0000 7eca 9da7 a0bf
00000190: 0000 0000 0000 0000 0000 0000 0000 0080
000001a0: 0000 0000 0000 0080 0000 0000 0000 0080
000001b0: 0000 0000 0000 0000 0000 0000 0000 0080
000001c0: 0000 0000 0000 0080 0000 0000 0000 0080
000001d0: 0000 0000 0000 0080 0000 0000 0000 0080
000001e0: 0000 487d 560b b4bf 0000 1fac 57f8 81bf
000001f0: 005c 3784 4487 c4bf 0090 949a cef1 c23f
00000200: 0000 0000 0000 0000 0040 d18a 9447 a4bf
00000210: 0010 821c 4936 c2bf 0080 8f6b 6e9d 91bf
00000220: 00f0 06d6 5c3d c33f 0020 df6e aac3 c53f
00000230: 0000 0000 0000 0080 0040 78b2 79d2 b0bf
00000240: 0000 cd10 b56d be3f 00a0 d01b d041 c2bf
00000250: 0060 ae96 20db c13f 0000 c6de cd16 9f3f
00000260: 0000 9dd0 2b36 bdbf 00c0 9e2e 549c b93f
00000270: 0000 0000 0000 0080 0000 dd61 8795 aebf
00000280: 0000 0000 0000 0080 0000 0000 0000 0000
00000290: 0000 0000 0000 0000 0000 0000 0000 0000
000002a0: 0000 0000 0000 0080 0000 0000 0000 0080
000002b0: 0000 0000 0000 0000 0000 0000 0000 0080
000002c0: 0040 590f 7bcc bb3f 0000 7363 3a7e b13f
000002d0: 0000 0000 0000 0080 00d0 d656 c4f7 acbf
000002e0: 0020 d4a2 0845 a8bf 0064 cc1e c876 b3bf
000002f0: 00e0 6aa1 1e3a b33f 0020 4539 dd64 c1bf
00000300: 00f8 2424 5e59 c0bf 00e8 a2e3 dd2d afbf
00000310: 0076 77f7 a823 c43f 00c0 dc77 3830 cf3f
00000320: 00be 0397 0f6d a7bf 0060 3826 ecf5 8c3f
00000330: 0094 b034 5824 ba3f 0050 4ae6 0fc4 b9bf
00000340: 0010 0d89 8ade b5bf 00d0 b2c3 80c8 a4bf
00000350: 008c 6b0f b0be d23f 0005 12d3 3277 c7bf
00000360: 0020 4626 c52e c23f 0018 0ff8 d0a3 bebf
00000370: 0000 0000 0000 0080 0000 0000 0000 0000
00000380: 0000 0000 0000 0080 0000 0000 0000 0080
00000390: 00c0 46bf 8451 b03f 0000 0000 0000 0000
000003a0: 0000 0000 0000 0080 0000 0000 0000 0000
000003b0: 0000 0000 0000 0080 0000 0000 0000 0080
000003c0: 0060 ac13 2939 c4bf 0000 0000 0000 0000
000003d0: 00e0 40ad ae44 cebf 0030 153b 16ef c3bf
000003e0: 00c0 9672 5e1b ba3f 00b0 e749 a3e4 cb3f
000003f0: 00a0 0f57 8d36 c23f 0080 4054 d94e 9dbf
00000400: 0040 75a1 3bfb c43f 0020 d9a2 0379 a5bf
00000410: 0000 0000 0000 0000 0000 d908 4308 bbbf
00000420: 0000 461f 453f 9ebf 0080 7a1e ee10 a2bf
00000430: 0000 7cb8 131d ae3f 0080 3c0e 6250 a43f
00000440: 0080 52c1 837f bbbf 0080 fc7d 3d06 b0bf
00000450: 00e0 3468 00f7 ae3f 00c0 20c0 449a c93f
00000460: 0000 0000 0000 0080 0080 ef20 0248 aa3f
00000470: 0000 0000 0000 0080 0000 0000 0000 0000
00000480: 00c0 42af 28c6 aebf 0000 0000 0000 0080
00000490: 0000 0000 0000 0000 00c0 dce1 8966 b23f
000004a0: 0000 0000 0000 0000 0020 0f85 8ba0 babf
000004b0: 0080 ac49 b7d6 b0bf 0040 9fde c79d b2bf
000004c0: 0090 8b9d c260 c63f 00e0 e955 6bd2 b8bf
000004d0: 00a0 1b5e e080 b2bf 0000 347a b517 a6bf
000004e0: 0000 1798 7232 ac3f 00e0 4b75 3251 a63f
000004f0: 00e0 f03c f51f ce3f 0080 8b7d 8493 c1bf
00000500: 0000 c36b cba1 993f 00a0 c46b a021 b0bf
00000510: 0088 5499 3e9a cb3f 0080 a26a 07ef b83f
00000520: 0000 b784 6a89 c0bf 00cc cef3 f4d6 a3bf
00000530: 00e0 26c1 150c bbbf 0080 43d0 291b ba3f
00000540: 0000 0000 0000 0080 00c0 f9ce 7531 bfbf
00000550: 0000 0000 0000 0000 0000 0000 0000 0080
00000560: 0000 0000 0000 0080 0000 0000 0000 0000
00000570: 0000 0000 0000 0080 0000 0000 0000 0080
00000580: 0000 0000 0000 0000 0000 0000 0000 0080
00000590: 0000 50e2 8a3b a93f 0000 0000 0000 0000
000005a0: f8d9 3cea 7cfe b13f 714a c22a 108d b6bf
000005b0: 4c28 5573 619a a63f d0b5 a3b6 31a2 bb3f
000005c0: 008a df3f af75 a3bf 8290 ca44 77f1 a93f
000005d0: b812 39df d313 bd3f 701d a191 7181 8ebf
000005e0: fe4e 4ad3 6a2e cdbf 10f5 6d59 f662 82bf
000005f0: 0080 d3fe da15 b4bf 0060 70b5 4460 a4bf
00000600: 0000 0000 0000 0080 00d8 e974 2856 b8bf
00000610: 0000 d8a3 e2d9 be3f 0000 b4ec b438 b43f
00000620: 0080 1beb 5fb3 b3bf 00bc 7f8e 0814 c13f
00000630: 0000 cd73 f49f a8bf 0000 2723 d6bb a63f
00000640: 0000 0000 0000 0000 0000 0000 0000 0000
00000650: 0020 a841 ae83 a43f 0000 58a4 f508 b23f
00000660: 0000 0000 0000 0000 0000 0000 0000 0080
00000670: 0000 0000 0000 0000 0070 f4df ca04 c63f
00000680: 0078 ecb8 8eb3 d4bf 0000 0000 0000 0000
00000690: 503f a84f 2e4f 71bf 60ce b60c ef10 64bf
000006a0: a640 68aa d2aa a03f c858 2ba7 d5c2 b43f
000006b0: 7075 fc5e 035a 91bf f197 f1f8 cbd8 ac3f
000006c0: 14d5 71e8 53ef 8e3f 4a9f 08e3 1a37 b03f
000006d0: eda8 79b4 9437 cbbf a8f0 2932 e19f 893f
000006e0: 0000 0000 0000 0080 0000 0000 0000 0080
000006f0: 0000 0000 0000 0080 0000 0000 0000 0080
00000700: 0000 0000 0000 0080 0000 0000 0000 0000
00000710: 0000 0000 0000 0080 0000 0000 0000 0000
00000720: 0080 2ee9 4188 c1bf 0000 0000 0000 0000
00000730: de26 1ce5 31e4 613f 178a 94d2 eade a1bf
00000740: 4ad9 f9d9 ecaa b93f 4ae0 cc75 a495 c83f
00000750: 6a6c 71b1 9164 813f a47b 5e15 fcc4 bd3f
00000760: 627e 92f3 7e5f bd3f e783 c66b 2603 a03f
00000770: e124 0065 632b e4bf 1640 9aad a26e ab3f
00000780: 0000 b0a2 ade8 a23f 0080 3ef5 b4cc a83f
00000790: 0000 0000 0000 0080 0000 0000 0000 0000
000007a0: 0000 0000 0000 0080 0000 0000 0000 0000
000007b0: 0000 fa82 2e0c ac3f 0000 0000 0000 0080
000007c0: 0000 0000 0000 0000 0000 0000 0000 0080
000007d0: 00e0 1e5a be09 cb3f 0000 0000 0000 0000
000007e0: 00c0 63e8 36ac bebf 0080 4654 34e7 bebf
000007f0: 0040 7964 7e15 b0bf 0080 eafe 9742 a9bf
-0.08644879992986887 -0.037149808326603306 -0.06888410861705552 -0.04077754848412951 0.0621956278986886 0.09088910205107936 0.16105217748372525 -0.09725997324332525
0.07453268809589986 -0.09893160308524784 0.048729600714978005 -0.0 0.0 0.0 -0.0 0.0
0.0 -0.0 0.0 0.0 0.12894586253148077 -0.1439994583444104 0.25704014464656666 -0.019664416701914433
-0.04102601490512825 0.019140368230750937 0.0 -0.0 -0.09920948662443152 -0.0949871282831225 0.0 -0.03923532494900428
0.18570862752221728 -0.032050942341129485 -0.03421767225427175 0.0 -0.0 0.0 -0.0 -0.03848579767816318
0.0 0.1237579794164958 0.026435706090296662 0.0 0.145252524647276 -0.021253472561852504 0.0 -0.10823196212959374
-0.14159890344035375 -0.03252881142452679 0.0 -0.0 -0.0 -0.0 0.0 -0.0
-0.0 -0.0 -0.0 -0.0 -0.07829800184845226 -0.008774456920832563 -0.1603780408465525 0.14800436542384432
0.0 -0.039608613915902424 -0.14228166477198556 -0.01720211535928229 0.1503101391843984 0.17003374494220225 -0.0 -0.06571159941836413
0.11886150036025356 -0.14263345106269298 0.13949973447302 0.0303604285450092 -0.11410783618066489 0.10004163873850302 -0.0 -0.05973456449146397
-0.0 0.0 0.0 0.0 -0.0 -0.0 0.0 -0.0
0.10858887791368943 0.06833233764609759 -0.0 -0.05657781181380983 -0.04740168559698077 -0.07603121520914158 0.07510558548790414 -0.13589062973392174
-0.12772728695739488 -0.06089681056751317 0.15733825763065568 0.24365907528544994 -0.04575394361915741 0.01414093486441459 0.10211707388278057 -0.1006479203445565
-0.08542695852253246 -0.04059221638581789 0.29288865571851375 -0.1833251505486615 0.14205231064647705 -0.1196871381390281 -0.0 0.0
-0.0 -0.0 0.06374387426217254 0.0 -0.0 0.0 -0.0 -0.0
-0.15799439869510934 0.0 -0.23647101840629148 -0.1557338512888009 0.10198011682109609 0.21791497334140786 0.14228979826953037 -0.028621097342806934
0.16391702064220226 -0.04193889010326757 0.0 -0.10559481588370545 -0.029538230928210396 -0.03528541681339448 0.058815590162339504 0.039675773847420714
-0.10741446943075061 -0.06259521795118417 0.060478222580456986 0.20002040272947852 -0.0 0.051330629845097064 -0.0 0.0
-0.06010558261311871 -0.0 0.0 0.071877114908375 0.0 -0.10401222227585549 -0.06577630566289372 -0.07272004304036273
0.17482788746485767 -0.09696074340342875 -0.07227899835163498 -0.04314963452088705 0.055072384896902804 0.043588234728247244 0.23535027957564125 -0.13731437807200564
0.02503125996804556 -0.06301310187393483 0.21564466940714055 0.09739729264629204 -0.12919360618798237 -0.03874936557931363 -0.10565315213796111 0.10197697958528806
-0.0 -0.12184845259776012 0.0 -0.0 -0.0 0.0 -0.0 -0.0
0.0 -0.0 0.04928239834407577 0.0 0.07028942793554183 -0.08808995288772238 0.04414658100957122 0.1079436369797897
-0.03800723700239317 0.05067036356675293 0.11358379554537634 -0.014895331627612335 -0.2279790431681405 -0.008977818111584074 -0.07845848771421515 -0.03979696955519785
-0.0 -0.09506466726620033 0.12051216602412751 0.07899027613530052 -0.07695579042365353 0.13342387159306668 -0.048095358978116565 0.04440182856660613
0.0 0.0 0.040067143931139526 0.07044921171473106 0.0 -0.0 0.0 0.17202125487608555
-0.32345932063060445 0.0 -0.004225903418514879 -0.002449480909229071 0.03255327539602719 0.08109793978960333 -0.01694493548631243 0.05634152807105853
0.015104918986461636 0.06334083597959964 -0.21263369381205824 0.012511977523211051 -0.0 -0.0 -0.0 -0.0
-0.0 0.0 -0.0 0.0 -0.13697074781248375 0.0 0.0021840071211770415 -0.03490384884414171
0.10026436158827781 0.19206672431914945 0.008492601611740553 0.11628699800210868 0.11473840185726084 0.0312740332185582 -0.6302964184443703 0.053578456584659914
0.03693144427234074 0.04843678945258034 -0.0 0.0 -0.0 0.0 0.05478043888888351 -0.0
0.0 -0.0 0.2112348499338168 0.0 -0.1198152844769993 -0.12071539933685926 -0.0628279681488948 -0.04933619486587304
