PyTorch/MNIST/LeNet300100/pruned_weight/CR_55/fc3.weight.npy (npy, 8128 bytes, 1 tensors)

array (column-major) f8 [10, 100]
000000 00 00 5c 96 b5 26 d0 3f 00 00 00 00 00 00 00 00
       0.2523626297333976 0.0
000010 00 00 00 00 00 00 00 00 00 00 00 00 00 00 00 80
       0.0 -0.0
000020 00 00 00 00 00 00 00 80 00 00 00 00 00 00 00 00
       -0.0 0.0
000030 00 00 00 00 00 00 00 80 00 00 00 00 00 00 00 80
       -0.0 -0.0
000040 00 00 00 00 00 00 00 80 00 00 00 00 00 00 00 80
       -0.0 -0.0
000050 00 00 00 00 00 00 00 00 00 00 50 46 61 43 ba bf
       0.0 -0.10259063688863534
000060 00 00 88 3c 2b 47 b6 3f 00 00 20 a7 8e 6e cb 3f
       0.08702345111669274 0.21431143913650885
000070 00 00 00 00 00 00 00 80 00 00 10 e1 04 b8 c0 bf
       -0.0 -0.13061581601505168
000080 00 00 00 00 00 00 00 80 00 00 10 53 34 ff b0 bf
       -0.0 -0.06639410999196116
000090 00 00 e2 1f df 01 c7 3f 00 00 00 00 00 00 00 80
       0.17974461609628634 -0.0
0000a0 00 00 00 00 00 00 00 00 00 00 00 00 00 00 00 80
       0.0 -0.0
0000b0 00 00 00 00 00 00 00 80 00 00 00 00 00 00 00 00
       -0.0 0.0
0000c0 00 00 00 00 00 00 00 00 00 00 00 00 00 00 00 80
       0.0 -0.0
0000d0 00 00 00 00 00 00 00 00 00 00 00 00 00 00 00 80
       0.0 -0.0
0000e0 00 00 00 00 00 00 00 00 00 00 00 00 00 00 00 80
       0.0 -0.0
0000f0 00 00 30 d1 35 63 d4 bf 00 00 d4 5c 36 b1 e1 3f
       -0.31855531147448346 0.5528823674248997
000100 00 00 b0 4a 9e ac cb 3f 00 00 44 c1 01 4f d3 bf
       0.21620539328432642 -0.30169719575496856
000110 00 00 00 18 b2 78 ba bf 00 00 98 81 df 3b cd bf
       -0.10340416990220547 -0.22838968112773728
000120 00 00 10 58 f3 ab cd 3f 00 00 60 64 18 47 c3 bf
       0.23181001472403295 -0.15060715581057593
000130 00 00 30 ac e5 bc b4 3f 00 00 80 24 d5 a0 a2 bf
       0.08100734189793002 -0.036383305268827826
000140 00 00 50 ee 9f 71 c4 bf 00 00 00 00 00 00 00 80
       -0.1597175515780691 -0.0
000150 00 80 38 aa 86 d5 d0 bf 00 00 8c 93 2f b7 d1 bf
       -0.2630325949012331 -0.2768057766807033
000160 00 00 00 9d b3 2e d3 3f 00 60 d5 af 2c 2c d0 bf
       0.2997254403308034 -0.25269620105018475
000170 00 00 c0 5d f9 c1 ad bf 00 00 39 22 60 2d dc 3f
       -0.05812052983674221 0.4402695020871761
000180 00 00 00 00 00 00 00 00 00 00 d2 b2 1a 90 d3 3f
       0.0 0.30567042792245047
000190 00 00 08 d7 b7 11 c8 bf 00 00 44 4a 5a 7e ba 3f
       -0.18804071425984148 0.10349048913121806
0001a0 00 80 84 2c 65 61 c8 3f 00 00 be 70 0d 98 d6 3f
       0.19047226594648237 0.35303054819087265
0001b0 00 00 35 30 a2 43 c5 bf 00 00 00 00 00 00 00 00
       -0.16612651208743046 0.0
0001c0 00 00 05 ce 9b dd c2 bf 00 00 ca 46 cf e7 cb 3f
       -0.1473879581408255 0.21801176983353798
0001d0 00 80 89 3b c4 c7 c5 bf 00 00 a4 68 1c 6d d1 bf
       -0.17015889079175395 -0.27228460520564113
0001e0 00 00 30 31 8a 6a c1 bf 00 00 00 00 00 00 00 00
       -0.13606383706792258 0.0
0001f0 00 00 00 00 00 00 00 80 00 00 f8 9e 07 a7 b3 bf
       -0.0 -0.07676742201874731
000200 00 00 20 1d 40 fc c4 3f 00 00 00 00 00 00 00 80
       0.16394807264441624 -0.0
000210 00 00 56 c1 a9 f8 d5 3f 00 00 00 00 00 00 00 00
       0.34330219154799124 0.0
000220 00 00 00 00 00 00 00 80 00 00 56 ec 83 6a c7 bf
       -0.0 -0.18293808975067805
000230 00 00 00 00 00 00 00 80 00 00 90 6b 0b 20 b4 bf
       -0.0 -0.07861396194493864
000240 00 00 d0 f5 e3 2e cb 3f 00 00 1c 46 5f f0 b5 3f
       0.2123684835678432 0.08569903813986457
000250 00 00 f0 7f dc 54 c0 bf 00 00 46 d9 64 f5 be bf
       -0.12758976218174212 -0.12093191437270434
000260 00 00 8e 8e 1c db c8 bf 00 00 00 00 00 00 00 80
       -0.19418675385168171 -0.0
000270 00 00 c8 82 c6 6b da 3f 00 00 04 bf b8 a3 ca bf
       0.41282809039694257 -0.20812138869223418
000280 00 00 00 00 00 00 00 80 00 00 ec 46 b4 57 b1 bf
       -0.0 -0.06774450999728288
000290 00 00 60 fb e8 ee cb 3f 00 00 c0 5a a4 15 c2 bf
       0.21822845720453188 -0.14128546172287315
0002a0 00 00 00 00 00 00 00 00 00 00 00 00 00 00 00 80
       0.0 -0.0
0002b0 00 00 3c bb 69 54 cd 3f 00 00 28 b0 dc e8 c2 bf
       0.22913858072570292 -0.14773138619784731
0002c0 00 00 00 00 00 00 00 80 00 00 00 00 00 00 00 80
       -0.0 -0.0
0002d0 00 00 00 00 00 00 00 80 00 00 00 00 00 00 00 80
       -0.0 -0.0
0002e0 00 00 00 00 00 00 00 00 00 00 00 00 00 00 00 80
       0.0 -0.0
0002f0 00 00 00 00 00 00 00 80 00 00 00 00 00 00 00 00
       -0.0 0.0
000300 00 00 00 00 00 00 00 80 00 00 00 00 00 00 00 00
       -0.0 0.0
000310 00 00 00 00 00 00 00 00 00 00 00 00 00 00 00 00
       0.0 0.0
000320 00 00 58 97 90 92 bd 3f 00 00 b4 ad 4c f0 c3 bf
       0.11551765150943538 -0.15577085954282666
000330 00 00 60 c9 4c 05 c7 bf 00 00 00 00 00 00 00 80
       -0.1798492415691726 -0.0
000340 00 00 00 64 03 42 d1 3f 00 00 84 f4 ac b3 be bf
       0.26965412870049477 -0.11992913217181922
000350 00 00 58 74 91 3b d8 3f 00 00 e0 f3 d7 15 c8 bf
       0.3786357532662805 -0.18816661270102486
000360 00 00 d0 3d c0 72 cb bf 00 00 30 72 4e 04 ba 3f
       -0.21443942087353207 0.1016282109048916
000370 00 00 a4 12 1c d6 d2 3f 00 00 00 00 00 00 00 00
       0.2943182165181497 0.0
000380 00 00 00 00 00 00 00 00 00 00 00 00 00 00 00 80
       0.0 -0.0
000390 00 00 0a c1 9e 97 c4 bf 00 00 00 00 00 00 00 00
       -0.16087707925544237 0.0
0003a0 00 00 00 00 00 00 00 80 00 00 3a 3c 10 3e cb bf
       -0.0 -0.21283152523756144
0003b0 00 00 00 00 00 00 00 00 00 00 28 ec ff 9f bc 3f
       0.0 0.11181640162976691
0003c0 00 00 08 ba 6e 78 ca bf 00 00 14 f6 7f 79 c6 bf
       -0.20680030902440194 -0.17558288112195441
0003d0 00 00 04 52 08 49 cc bf 00 c0 36 96 db a6 d6 3f
       -0.22097877506894292 0.3539341895038888
0003e0 00 00 24 14 6d ae cd bf 00 80 04 63 39 75 d3 3f
       -0.2318855617850204 0.3040297953575646
0003f0 00 00 94 7a 93 47 ab bf 00 00 04 b8 3a 0b d0 bf
       -0.05328045722308161 -0.25068538637424354
000400 00 00 68 e8 23 61 dc 3f 00 00 e8 ff 79 ee b0 bf
       0.44342897125170566 -0.06613886354170972
000410 00 c0 f6 7d c3 a3 d1 3f 00 00 d0 99 90 c1 c7 bf
       0.2756203394046679 -0.18559463034034707
000420 00 80 bb 09 d8 89 c2 bf 00 00 00 00 00 00 00 00
       -0.14483166194168007 0.0
000430 00 00 00 00 00 00 00 80 00 00 c4 ef 1e 77 c4 bf
       -0.0 -0.1598852797251311
000440 00 b0 6e 9e 78 ee e1 3f 00 00 78 f3 5b 9b c5 bf
       0.5603602499372755 -0.16880368602869567
000450 00 00 80 be 03 f8 b7 bf 00 00 58 3e 38 76 be bf
       -0.09362815285567194 -0.11899138948501786
000460 00 00 00 00 00 00 00 00 00 00 00 00 00 00 00 00
       0.0 0.0
000470 00 80 eb 34 f6 ed d8 3f 00 00 dc 6f f6 5c d2 3f
       0.3895240322872269 0.2869239895226201
000480 00 00 bc cc ef 08 d1 bf 00 00 02 ba 6d 21 c3 bf
       -0.2661704539641505 -0.14945766050732345
000490 00 00 fc bb fe 14 c5 bf 00 00 54 af 0a ac d1 3f
       -0.16470321825909195 0.2761255943478318
0004a0 00 00 00 00 00 00 00 00 00 00 de 50 24 7d d9 bf
       0.0 -0.3982630529135349
0004b0 00 00 00 00 00 00 00 80 00 00 72 5c f4 e5 c9 3f
       -0.0 0.20233015550547861
0004c0 00 00 aa 01 72 4f c5 3f 00 00 00 00 00 00 00 80
       0.16648697930577327 -0.0
0004d0 00 00 60 39 f8 6d b6 bf 00 00 0c 60 95 0b b4 bf
       -0.08761550331837498 -0.07830175013441476
0004e0 00 00 00 00 00 00 00 80 00 00 0f b8 80 be cb 3f
       -0.0 0.2167511843417742
0004f0 00 00 62 f8 32 25 be bf 00 00 00 00 00 00 00 80
       -0.11775511325868138 -0.0
000500 00 00 00 00 00 00 00 00 00 00 00 00 00 00 00 80
       0.0 -0.0
000510 00 00 00 00 00 00 00 00 00 00 00 00 00 00 00 00
       0.0 0.0
000520 00 00 00 00 00 00 00 80 00 00 00 00 00 00 00 00
       -0.0 0.0
000530 00 00 00 00 00 00 00 00 00 00 00 00 00 00 00 00
       0.0 0.0
000540 00 00 00 00 00 00 00 00 00 00 00 00 00 00 00 00
       0.0 0.0
000550 00 00 44 9a c8 e8 a2 bf 00 00 a0 79 25 26 c5 bf
       -0.03693224795460992 -0.16522663534851745
000560 00 00 a0 21 bd 2b c7 bf 00 00 60 96 39 21 cd 3f
       -0.18102230207296088 0.22757644503144547
000570 00 00 a0 1b 9c 99 c1 bf 00 00 b8 a4 2f f6 c1 bf
       -0.13750029896618798 -0.14032550375850406
000580 00 00 28 9a a9 1e b6 bf 00 00 b8 96 eb 12 c2 3f
       -0.08640537274914095 0.14120240077318158
000590 00 00 7e d7 fa c5 a4 bf 00 00 8e d1 2d 32 dc 3f
       -0.04057296638984553 0.44056268181157066
0005a0 00 10 c9 ab 19 54 d7 3f 00 00 00 00 00 00 00 00
       0.3645080735770989 0.0
0005b0 00 00 9c 54 3e 6b cf 3f 00 40 bd 96 49 c8 c2 bf
       0.24546031123463763 -0.14673728809657405
0005c0 00 00 d0 34 0f bf cd bf 00 00 24 66 13 30 c3 bf
       -0.232393170153955 -0.1499046562894364
0005d0 00 00 00 00 00 00 00 80 00 80 e7 53 6d fc b7 bf
       -0.0 -0.09369548128552196
0005e0 00 00 40 8d 25 38 c5 3f 00 00 e6 39 25 3c c4 bf
       0.1657759608933702 -0.15808549239227432
0005f0 00 00 00 00 00 00 00 00 00 00 00 00 00 00 00 00
       0.0 0.0
000600 00 00 00 00 00 00 00 80 00 00 00 00 00 00 00 80
       -0.0 -0.0
000610 00 00 00 00 00 00 00 80 00 00 00 00 00 00 00 80
       -0.0 -0.0
000620 00 00 00 00 00 00 00 80 00 00 b0 ba aa 29 d1 3f
       -0.0 0.2681681464309804
000630 00 00 00 00 00 00 00 80 00 00 00 00 00 00 00 00
       -0.0 0.0
000640 00 c0 eb 36 bc 64 be bf 00 00 90 5d b0 64 c2 3f
       -0.1187245973667359 0.14369778221589513
000650 00 00 40 88 04 7f d1 3f 00 00 74 72 11 43 c4 3f
       0.2733775454107672 0.1582967575886869
000660 00 00 23 c8 3f 1f c0 bf 00 00 47 4a 44 a0 cf bf
       -0.1259536483030388 -0.24707845331977296
000670 00 00 d0 a9 81 77 ba bf 00 5a e1 2a 1b c2 cf 3f
       -0.1033860244351672 0.24811114877475404
000680 00 00 be 60 52 09 bc bf 00 78 c3 ce 88 70 c0 bf
       -0.10951723920697987 -0.12843427749515968
000690 00 00 00 00 00 00 00 80 00 00 b7 b8 49 31 d4 3f
       -0.0 0.31550829924162827
0006a0 00 00 ba df 11 f0 ca bf 00 00 fa d1 91 32 cc bf
       -0.21045134948872146 -0.22029326203119126
0006b0 00 00 00 00 00 00 00 00 00 00 00 00 00 00 00 00
       0.0 0.0
0006c0 00 00 24 99 94 a8 c6 bf 00 00 a8 1c 73 3f ce 3f
       -0.1770196674115141 0.2363113298342796
0006d0 00 00 00 00 00 00 00 00 00 00 00 00 00 00 00 80
       0.0 -0.0
0006e0 00 00 03 8a 52 bc d3 3f 00 00 00 00 00 00 00 00
       0.30836928823191556 0.0
0006f0 00 00 48 09 aa 38 c6 bf 00 00 10 7a e2 1f b6 bf
       -0.17360425427614246 -0.08642402153054718
000700 00 00 00 00 00 00 00 00 00 00 8c 59 42 6c c7 bf
       0.0 -0.18299130794912344
000710 00 00 06 58 ef 97 c2 3f 00 00 a0 d5 9f 57 c3 bf
       0.14526168630618486 -0.15111158305080608
000720 00 00 60 c3 90 20 b3 bf 00 80 91 77 65 00 d2 3f
       -0.07471565980813466 0.28127419163320155
000730 00 00 90 e2 54 89 b9 3f 00 00 00 00 00 00 00 80
       0.09975176364241634 -0.0
000740 00 00 68 df 6a 45 c6 bf 00 00 64 e1 9d be c0 bf
       -0.17399345310695935 -0.13081716065789806
000750 00 00 a0 13 e8 38 c3 3f 00 00 18 5f 8f 0d c7 bf
       0.15017415006877854 -0.1801013197255088
000760 00 00 00 00 00 00 00 80 00 00 ec 43 36 fb b8 3f
       -0.0 0.09758319051979925
000770 00 00 b8 7c 0d 54 c0 bf 00 00 f0 44 ba e4 b7 3f
       -0.12756508435995784 0.09333385642094072
000780 00 00 00 00 00 00 00 80 00 00 00 00 00 00 00 80
       -0.0 -0.0
000790 00 00 00 00 00 00 00 80 00 00 00 00 00 00 00 80
       -0.0 -0.0
0007a0 00 00 00 00 00 00 00 00 00 00 00 00 00 00 00 80
       0.0 -0.0
0007b0 00 00 00 00 00 00 00 00 00 00 00 00 00 00 00 80
       0.0 -0.0
0007c0 00 00 00 00 00 00 00 00 00 00 00 00 00 00 00 00
       0.0 0.0
0007d0 00 00 00 00 00 00 00 00 00 00 38 cf c5 be c1 bf
       0.0 -0.13863442056754138
0007e0 00 00 00 00 00 00 00 00 00 00 00 00 00 00 00 00
       0.0 0.0
0007f0 00 00 00 00 00 00 00 80 00 00 00 00 00 00 00 00
       -0.0 0.0
