PyTorch/MNIST/LeNet5/pruned_weight/CR_65/conv2.bias.npy (npy, 528 bytes, 1 tensors)

array f8 [50]
000000 00 80 a7 68 38 5b bc bf 00 f0 3b e3 95 1e ad bf
       -0.11076691203152222 -0.05687397383550774
000010 00 e6 51 2f d7 3e b3 bf 00 00 00 00 00 00 00 80
       -0.07517762093802816 -0.0
000020 00 c0 fc f9 90 d8 c3 bf 00 b8 f8 e4 fb e1 b4 bf
       -0.15504657942210542 -0.08157324161649626
000030 00 68 c3 f2 75 4c b1 bf 00 40 0c f6 20 da a9 bf
       -0.06757294823492543 -0.05049231532586873
000040 00 00 00 00 00 00 00 80 00 00 00 00 00 00 00 80
       -0.0 -0.0
000050 00 00 fb dd e6 ba b2 bf 00 00 00 00 00 00 00 80
       -0.07316439551777876 -0.0
000060 00 60 a9 b0 18 17 c1 bf 00 40 93 6b 2e 93 ad bf
       -0.13351734758430212 -0.05776352942632457
000070 00 00 78 c5 49 54 97 bf 00 00 00 00 00 00 00 80
       -0.022782471349273692 -0.0
000080 00 80 69 48 83 7d aa bf 00 c0 80 78 34 9d af bf
       -0.051738836850518055 -0.06174625369055775
000090 80 c6 ef ac 65 cb aa bf 00 00 00 00 00 00 00 80
       -0.052333047256877485 -0.0
0000a0 00 f0 c6 c1 77 c8 a5 bf 00 00 00 00 00 00 00 00
       -0.04254507294123755 0.0
0000b0 00 d0 69 a6 bd b1 aa bf 00 00 48 c2 ca f1 a4 bf
       -0.0521373048440239 -0.04090722676846781
0000c0 80 fa f0 b9 5b b8 b0 bf 00 ba 0e de 65 0d af bf
       -0.06531308450301232 -0.06064909301436572
0000d0 00 b0 08 24 28 eb b6 bf 00 00 00 00 00 00 00 00
       -0.08952570800528292 0.0
0000e0 00 00 00 00 00 00 00 00 00 00 00 00 00 00 00 80
       0.0 -0.0
0000f0 c0 9d de 3a ac 0b b3 bf 00 00 00 00 00 00 00 00
       -0.07439686238523446 0.0
000100 00 00 00 00 00 00 00 80 00 40 f0 45 dc 29 b1 bf
       -0.0 -0.0670449896572336
000110 00 10 5e 23 86 56 a6 3f 00 00 00 00 00 00 00 80
       0.04362887555819839 -0.0
000120 00 00 00 00 00 00 00 00 00 00 00 00 00 00 00 80
       0.0 -0.0
000130 00 aa 56 67 e5 bf b4 3f 00 00 65 85 ee e6 a7 3f
       0.08105310223496787 0.04668374422408306
000140 00 90 a5 bc 09 28 b4 bf 00 20 d1 93 e1 5c a8 bf
       -0.0787359319270422 -0.04758362702756358
000150 00 c0 88 e5 48 ce b3 bf 00 00 6e 5c 69 48 a9 bf
       -0.07736640552388963 -0.049380581410332525
000160 00 00 00 00 00 00 00 00 00 94 af b8 7f d2 b1 bf
       0.0 -0.06961820849353728
000170 00 00 00 00 00 00 00 80 00 80 11 79 34 72 b5 bf
       -0.0 -0.08377387958307736
000180 00 00 00 00 00 00 00 00 00 40 7b 1f 0b 46 c0 bf
       0.0 -0.1271375564306254
