PyTorch/MNIST/LeNet5/pruned_weight/CR_45/conv2.weight.npy (npy, 200128 bytes, 1 tensors)

array f8 [50, 20, 5, 5]
-0.03240825987389684 -0.02715837339241034 -0.03944246046519595 -0.0 -0.03537954017226408 -0.0 -0.032105601453821464 -0.0
0.0 -0.0 -0.0 0.0 -0.0 -0.0 -0.04716105388305181 0.0
-0.02125307097918494 0.0 -0.0432791412251845 -0.030386204469948552 -0.0 0.0 -0.0 -0.0
-0.03293227206243898 -0.06419383883097396 -0.08553630190414196 -0.08100129430147263 -0.08610141181344488 -0.09868567632679515 -0.05348375843104236 -0.07176152908698441
-0.1369136737464487 -0.10726377148239408 -0.08890687342301362 -0.050656043862474576 -0.08268737531931158 -0.1385550501081525 -0.12101558442407168 -0.11692782662510126
-0.0 -0.08975000172674186 -0.09952945733807894 -0.09446012372707457 -0.061854736505068786 -0.029868507417209145 -0.09390165002935191 -0.10255383071380209
-0.11175408006912946 -0.10090882783339339 -0.05548906564548872 -0.07177928595464778 -0.10328515200584576 -0.08951782348191273 -0.10326296761928688 -0.037001188914771
-0.07713265842475892 -0.12034940513899528 -0.07456816871371075 -0.08859526712979005 -0.0 -0.03820337400043172 -0.052907823165213586 -0.05571824127395075
-0.06245813892324037 -0.04362265908713425 -0.06800335267619317 -0.08942726897538478 -0.06654455746186727 0.0 -0.03834834198549242 -0.0779474997334546
-0.06204383032974192 -0.10234207162039866 -0.06996223910527988 -0.030370931212772234 -0.04149973670186924 0.0 -0.052508566836614534 -0.0627550607080849
-0.05095139556648576 -0.04979363560148187 -0.06764821435115209 -0.05986434467365598 -0.05048468403957429 0.0 -0.040407867732540126 -0.02863436384434692
0.0 -0.0 -0.03776970429909454 -0.0341536304401302 -0.046323239343877276 -0.0 0.0 -0.0601655400797938
-0.047877127328774804 0.0 -0.04740111590734841 -0.03783687407295844 -0.04742043029256138 -0.024888369095009466 -0.043313326887048476 -0.04634148648607095
-0.04894430203547273 -0.0 -0.025961054556482566 -0.05482908636895445 -0.05528587076986469 0.0 -0.018370323082052664 -0.05949578429122937
-0.05422522136288421 -0.0 -0.034877998022508905 -0.049532968573686276 -0.04074794742050436 0.0 -0.0 -0.04179401156113727
-0.043835922869703836 -0.05594431601789096 -0.040002768790600385 -0.060869287907166836 -0.038634277761161684 -0.0 -0.0 -0.029753596415957873
-0.019417742210407596 -0.0 0.0 -0.0 -0.0 -0.0 -0.03425144473135333 -0.0
-0.0 0.0 -0.0 0.0 -0.0 0.0 -0.0 -0.0
0.0 0.0 -0.0 -0.027123055189719025 -0.0 -0.0 -0.07480570578894685 -0.08891783361127636
-0.10557907525912924 -0.10933578383139775 -0.09327526700405997 -0.0693402345798404 -0.0918692702105659 -0.16087156634471 -0.09219502242581257 -0.10813585831525074
-0.07180590273574694 -0.08232571269520861 -0.07062801269836427 -0.07455043699343378 -0.05008176602149206 -0.0490477718791027 -0.10128731681247416 -0.08810522305986979
-0.06970819686125651 -0.0 -0.08305007098141459 -0.09874513367202553 -0.12750110102626877 -0.11147726686564852 -0.046513007623360636 -0.054653045502486286
-0.06557591774462423 -0.0 -0.06041143825879658 -0.04739785968905608 -0.03578345912008274 -0.04584971626451306 -0.05019956651845803 -0.08217278054621602
-0.0586585826254975 -0.06322516563173508 -0.0459940731466304 -0.08384093714906271 -0.07419352880867613 -0.0 -0.04142223320926064 -0.07013836245101857
-0.05066559966438766 -0.0 -0.023713047182170044 -0.019285799355316158 -0.06922941950847594 -0.0 -0.027305985526837162 -0.0
-0.06044796195021718 -0.03404274949856756 -0.04563310639133533 -0.029717383563976796 -0.04375567111191003 -0.04911525355771573 -0.058643206855151675 -0.039488503481834414
-0.027404773647901948 -0.0 -0.0 -0.059209548103474674 -0.035375891610982535 -0.0 -0.0 -0.0
-0.03760031923303586 -0.0 -0.038965031154269525 0.0 -0.05245260351134107 -0.06153277494456688 -0.049047862212916016 -0.03064588430686399
-0.03447312668521363 -0.04210465512562678 0.0 -0.046169571525638275 -0.045144775426251726 -0.0 -0.03731328453148741 -0.06698514292429536
-0.06404796194911544 0.0 -0.02154571897553126 -0.05150967952022256 -0.03388497920410316 0.0 0.0 -0.03476201520294353
-0.039970592500395696 -0.05504420864554049 -0.041980926343057945 0.0 -0.05500290822320153 -0.049301178599989726 -0.032981134439523885 -0.05204806152391939
-0.04729896366358588 0.0 -0.0 0.0 0.0 -0.0 -0.04687637870851802 -0.028876109001885197
00000000: 00ac 8ec0 d097 a0bf 00c0 2196 67cf 9bbf
00000010: 0028 8b5b cd31 a4bf 0000 0000 0000 0080
00000020: 808b f95f 441d a2bf 0000 0000 0000 0080
00000030: 0070 8638 2570 a0bf 0000 0000 0000 0080
00000040: 0000 0000 0000 0000 0000 0000 0000 0080
00000050: 0000 0000 0000 0080 0000 0000 0000 0000
00000060: 0000 0000 0000 0080 0000 0000 0000 0080
00000070: 002c 2560 7e25 a8bf 0000 0000 0000 0000
00000080: 0040 2e73 5dc3 95bf 0000 0000 0000 0000
00000090: 0080 5200 af28 a6bf 00c0 caa9 8f1d 9fbf
000000a0: 0000 0000 0000 0080 0000 0000 0000 0000
000000b0: 0000 0000 0000 0080 0000 0000 0000 0080
000000c0: 0078 fbae 7fdc a0bf 003c 62e6 016f b0bf
000000d0: 0090 4c03 b5e5 b5bf 0060 f535 80bc b4bf
000000e0: 00d0 e0fb bd0a b6bf 0040 68e8 7643 b9bf
000000f0: 0030 a822 3962 abbf 0020 8aac f65e b2bf
00000100: 00e0 8e23 6386 c1bf 0000 9076 a375 bbbf
00000110: 00d0 bdd1 99c2 b6bf 00d8 77c7 96ef a9bf
00000120: 80dc c9f4 ff2a b5bf 0080 7400 2cbc c1bf
00000130: 0060 6899 e0fa bebf 00e0 5867 fbee bdbf
00000140: 0000 0000 0000 0080 0078 3b2a dbf9 b6bf
00000150: 0074 4134 c37a b9bf 0014 2fe6 892e b8bf
00000160: 00b0 c88c 6cab afbf 0024 269a d995 9ebf
00000170: 00a0 ea43 f009 b8bf 00cc fec4 f740 babf
00000180: 006b 1757 ea9b bcbf 0010 6c33 29d5 b9bf
00000190: 0048 7714 1069 acbf 0098 b495 2060 b2bf
000001a0: 000a 074e e570 babf 0090 43dc a3ea b6bf
000001b0: 0010 d01c 716f babf 80a7 9ae0 d1f1 a2bf
000001c0: 004c 6345 f7be b3bf 0040 2af7 37cf bebf
000001d0: 00b0 f245 e616 b3bf 0020 e7ee 2dae b6bf
000001e0: 0000 0000 0000 0080 0080 db83 648f a3bf
000001f0: 00f0 64f4 bb16 abbf 00e0 1ff0 1987 acbf
00000200: 00b4 1660 83fa afbf 00a0 498c b555 a6bf
00000210: 003a c3ef aa68 b1bf 00b0 9e9b b4e4 b6bf
00000220: 0088 066a 1009 b1bf 0000 0000 0000 0000
00000230: 80f5 5dd5 64a2 a3bf 0000 290a 5ef4 b3bf
00000240: 00a0 5e7c 35c4 afbf 0050 9d0a 1733 babf
00000250: 0080 e998 0be9 b1bf 0050 3bb1 8e19 9fbf
00000260: 00b2 da17 743f a5bf 0000 0000 0000 0000
00000270: 006c a522 67e2 aabf 0054 6635 b710 b0bf
00000280: 0088 4923 4d16 aabf 0024 ea28 8d7e a9bf
00000290: 0060 45b4 6451 b1bf 00c0 2315 8aa6 aebf
000002a0: 0038 cce5 20d9 a9bf 0000 0000 0000 0000
000002b0: 0020 d30c 57b0 a4bf 0050 03a1 5352 9dbf
000002c0: 0000 0000 0000 0000 0000 0000 0000 0080
000002d0: 0008 7df9 8c56 a3bf 0060 8fab 957c a1bf
000002e0: 00b0 0dfc adb7 a7bf 0000 0000 0000 0080
000002f0: 0000 0000 0000 0000 0050 fa85 04ce aebf
00000300: 0000 35d0 5983 a8bf 0000 0000 0000 0000
00000310: 0060 3b85 f544 a8bf 00d4 73d1 5a5f a3bf
00000320: 00a0 899a 7d47 a8bf 0060 412d 567c 99bf
00000330: 00f2 eb14 2a2d a6bf 00b8 cf41 12ba a7bf
00000340: 00c4 2241 3a0f a9bf 0000 0000 0000 0080
00000350: 00b8 28e1 8895 9abf 0000 a6d9 8e12 acbf
00000360: 0060 c6fd 6d4e acbf 0000 0000 0000 0000
00000370: 00e0 6a83 abcf 92bf 00b8 8f3f 3b76 aebf
00000380: 0070 be80 68c3 abbf 0000 0000 0000 0080
00000390: 0098 b669 87db a1bf 0010 32a0 625c a9bf
000003a0: 00b3 193b eadc a4bf 0000 0000 0000 0000
000003b0: 0000 0000 0000 0080 00c0 a551 0666 a5bf
000003c0: 0010 3b7e a971 a6bf e04a 63bf bba4 acbf
000003d0: 0000 692f 3e7b a4bf 00c0 c861 422a afbf
000003e0: 0040 fa3e dfc7 a3bf 0000 0000 0000 0080
000003f0: 0000 0000 0000 0080 0000 2e0e ba77 9ebf
00000400: 0000 069f 3ee2 93bf 0000 0000 0000 0080
00000410: 0000 0000 0000 0000 0000 0000 0000 0080
00000420: 0000 0000 0000 0080 0000 0000 0000 0080
00000430: 0080 ecc5 6789 a1bf 0000 0000 0000 0080
00000440: 0000 0000 0000 0080 0000 0000 0000 0000
00000450: 0000 0000 0000 0080 0000 0000 0000 0000
00000460: 0000 0000 0000 0080 0000 0000 0000 0000
00000470: 0000 0000 0000 0080 0000 0000 0000 0080
00000480: 0000 0000 0000 0000 0000 0000 0000 0000
00000490: 0000 0000 0000 0080 00a0 076c 25c6 9bbf
000004a0: 0000 0000 0000 0080 0000 0000 0000 0080
000004b0: 00f0 ea7b 7726 b3bf 0040 64b3 51c3 b6bf
000004c0: 0040 61f3 3a07 bbbf 00a0 d60f 6efd bbbf
000004d0: 00e0 4e4d e3e0 b7bf 0040 d117 48c0 b1bf
000004e0: 00d0 0f97 be84 b7bf 0046 2782 7097 c4bf
000004f0: 0040 2cce 179a b7bf 0028 fda6 caae bbbf
00000500: 00e8 e823 df61 b2bf 0054 a543 4c13 b5bf
00000510: 0090 b86c ad14 b2bf 0010 cac8 bc15 b3bf
00000520: 0060 6036 51a4 a9bf 0028 5320 ca1c a9bf
00000530: 008c 3531 f7ed b9bf 0020 a65b 108e b6bf
00000540: 0040 c879 65d8 b1bf 0000 0000 0000 0080
00000550: 00b0 cbfa c442 b5bf 00b0 c26f 5c47 b9bf
00000560: 0050 8ec1 f451 c0bf 0078 6f2f c689 bcbf
00000570: 0070 298d 8dd0 a7bf 80b5 1ee6 7bfb abbf
00000580: 004c 1e56 95c9 b0bf 0000 0000 0000 0080
00000590: 0070 407f 3fee aebf 00a0 8742 8844 a8bf
000005a0: 0028 51a5 3552 a2bf 0020 c62f 9d79 a7bf
000005b0: 00b8 f0f0 c1b3 a9bf 0040 117d 4609 b5bf
000005c0: 0030 036c 7f08 aebf 0028 ac42 862f b0bf
000005d0: 0000 f3ff 888c a7bf 0008 1f83 9976 b5bf
000005e0: 80df cedb 58fe b2bf 0000 0000 0000 0080
000005f0: 0010 ec81 4b35 a5bf 0010 ec74 96f4 b1bf
00000600: e079 2e6b d7f0 a9bf 0000 0000 0000 0080
00000610: 0030 8ba8 3b48 98bf 0080 0816 a8bf 93bf
00000620: 80c0 b5ec 04b9 b1bf 0000 0000 0000 0080
00000630: 0090 4aab 19f6 9bbf 0000 0000 0000 0080
00000640: 0040 5f07 09f3 aebf 0048 861f 0d6e a1bf
00000650: 00a0 21f7 385d a7bf 00b0 1eda 3b6e 9ebf
00000660: 0060 e1b0 2467 a6bf 00c0 876f a225 a9bf
00000670: 00a0 267f 7b06 aebf 0080 0b4e d637 a4bf
00000680: 00c0 493a ff0f 9cbf 0000 0000 0000 0080
00000690: 0000 0000 0000 0080 0044 6ec1 b650 aebf
000006a0: 0070 12f3 c91c a2bf 0000 0000 0000 0080
000006b0: 0000 0000 0000 0080 0000 0000 0000 0080
000006c0: 00a0 d95a 5940 a3bf 0000 0000 0000 0080
000006d0: 008c fd7c 39f3 a3bf 0000 0000 0000 0000
000006e0: 00b0 5751 11db aabf 00c0 0950 3981 afbf
000006f0: 0050 4928 cd1c a9bf 0080 6b7b a261 9fbf
00000700: 0060 682f 76a6 a1bf 0040 8cc9 bd8e a5bf
00000710: 0000 0000 0000 0000 00c0 8bbf 89a3 a7bf
00000720: 0000 154c 371d a7bf 0000 0000 0000 0080
00000730: 00c5 8911 ba1a a3bf 0080 2d36 f025 b1bf
00000740: 4068 f27d 7265 b0bf 0000 0000 0000 0000
00000750: 0090 79b9 1410 96bf 0000 ef09 7a5f aabf
00000760: 00b8 033b 5f59 a1bf 0000 0000 0000 0000
00000770: 0000 0000 0000 0000 0020 e1ac 53cc a1bf
00000780: 0090 2e87 0677 a4bf 0000 ef27 c12e acbf
00000790: 0000 6623 867e a5bf 0000 0000 0000 0000
000007a0: 00d0 0158 5729 acbf 0080 7b0b 013e a9bf
000007b0: 0000 9b3b e7e2 a0bf 0080 2124 0ba6 aabf
000007c0: 00bc 23dc 9137 a8bf 0000 0000 0000 0000
000007d0: 0000 0000 0000 0080 0000 0000 0000 0000
000007e0: 0000 0000 0000 0000 0000 0000 0000 0080
000007f0: 0018 0443 2e00 a8bf 0000 32df b291 9dbf
