PyTorch/MNIST/LeNet300100/pruned_weight/CR_80/fc1.bias.npy (npy, 2528 bytes, 1 tensors)

array f8 [300]
-0.0 -0.010132703930139542 -0.006428036838769913 -0.0038618973921984434 -0.009655303321778774 0.002198210684582591 -0.002759023569524288 -0.044180918484926224
-0.012846413068473339 -0.0253458134829998 -0.0199116263538599 0.008732016198337078 -0.022578084841370583 -0.03888316825032234 -0.023075569421052933 -0.03378434479236603
-0.012805293314158916 -0.004540414549410343 -0.004575479310005903 -0.02052765153348446 -0.010630162432789803 0.006505276542156935 -0.003940587397664785 0.002565515460446477
0.0 0.0 0.0 -0.04223952442407608 -0.007152373902499676 0.0 -0.017159780487418175 -0.010748072527348995
0.0 -0.03313100337982178 -0.022849176079034805 -0.02309553511440754 -0.018525706604123116 -0.014748390763998032 -0.003467598231509328 -0.01565074920654297
-0.03261353075504303 -0.0 0.0047697583213448524 -0.005755965132266283 -0.029695196077227592 -0.002824656432494521 -0.028368396684527397 -0.001851550186984241
-0.0044274409301579 0.0020048434380441904 0.002635018667206168 -0.0066461386159062386 -0.042385686188936234 -0.022311165928840637 -0.013890831731259823 -0.024859195575118065
-0.014576297253370285 0.0026221589650958776 -0.013018215075135231 0.0 -0.014346254989504814 -0.009734801016747952 0.0 -0.0023610538337379694
-0.03224831447005272 -0.013035093434154987 -0.004128704778850079 -0.013598979450762272 -0.005451248027384281 -0.0026500867679715157 -0.02696922980248928 -0.007217638660222292
-0.012205256149172783 -0.008888425305485725 -0.03095601126551628 -0.02258279174566269 -0.00924855750054121 -0.031588368117809296 -0.0020544060971587896 -0.019488688558340073
-0.019974712282419205 -0.025434164330363274 -0.0 -0.013260755687952042 -0.022610029205679893 0.0037592584267258644 -0.009621295146644115 0.0030591734685003757
-0.04605291038751602 -0.005662277340888977 0.0025007494259625673 -0.04028722643852234 -0.0029231144580990076 -0.0280283335596323 0.01686583273112774 -0.023775964975357056
-0.008069571107625961 -0.02059229649603367 0.0 0.0 -0.030047552660107613 -0.006753956433385611 -0.007961628958582878 -0.01536729745566845
-0.006469955202192068 -0.020500686019659042 -0.00853028241544962 -0.029593676328659058 -0.007543557323515415 -0.020400751382112503 -0.01923062838613987 -0.026921866461634636
-0.0 0.005839394871145487 0.00428878515958786 -0.02474239096045494 -0.004434557165950537 -0.0019346625776961446 0.0024997354485094547 -0.0
-0.021968666464090347 -0.022274043411016464 -0.015196552500128746 0.0 -0.023082250729203224 -0.02614545449614525 0.004679055418819189 -0.014117615297436714
-0.030455905944108963 -0.019583329558372498 -0.0058288718573749065 -0.012273824773728848 0.0028843339532613754 0.0018059508875012398 0.005174555815756321 -0.007261145394295454
-0.009719481691718102 -0.0026382682844996452 -0.0036411904729902744 -0.01250324584543705 0.0047933124005794525 -0.004703340120613575 -0.0 -0.025957174599170685
-0.0022086037788540125 -0.015903916209936142 -0.014800451695919037 -0.00338605884462595 -0.0033681790810078382 -0.007832862436771393 -0.031391505151987076 -0.01619761809706688
-0.010147294960916042 -0.009694838896393776 -0.027531947940587997 -0.004721721634268761 0.0 -0.022197356447577477 -0.03487025573849678 -0.008812461979687214
-0.003169052768498659 -0.020943744108080864 -0.026385674253106117 -0.003812371054664254 -0.009290503337979317 -0.07160882651805878 -0.008986897766590118 -0.015092522837221622
-0.048247791826725006 -0.0 -0.0065483166836202145 -0.009537721984088421 -0.013826410286128521 -0.02251230739057064 -0.0030093917157500982 -0.026895469054579735
-0.028656944632530212 -0.030791616067290306 -0.0 -0.015560364350676537 -0.028663968667387962 -0.029028447344899178 0.0 -0.01462537981569767
-0.021166745573282242 -0.0238531231880188 0.0 -0.0 -0.011615060269832611 -0.009654420427978039 -0.012149622663855553 -0.02595410868525505
0.0 0.0 0.0 0.002029221970587969 -0.018835535272955894 -0.025939418002963066 -0.018899336457252502 -0.012047259137034416
-0.011353467591106892 -0.012750367633998394 -0.00945207104086876 -0.03181536868214607 -0.009240965358912945 -0.02790602296590805 -0.03061353787779808 0.0
-0.00403534946963191 -0.006445410195738077 -0.007773109711706638 -0.03931606188416481 -0.0079742930829525 -0.016407789662480354 -0.015753470361232758 -0.0021119308657944202
-0.0053663793951272964 -0.01582261733710766 -0.01715775765478611 -0.017004936933517456 0.0 -0.0021284024696797132 0.0 -0.00633311877027154
-0.0022281953133642673 0.006176291033625603 -0.0 -0.010845801793038845 -0.050879061222076416 0.0019530620193108916 0.0 0.0
0.009441607631742954 -0.017225561663508415 -0.003923316951841116 -0.010769490152597427 -0.02267592027783394 -0.030072636902332306 0.014157170429825783 -0.016356490552425385
-0.01711604930460453 0.0 -0.009965040720999241 -0.02741483971476555 -0.01054057665169239 0.0023934796918183565 0.0 -0.02041264995932579
-0.0 0.0 -0.019001249223947525 -0.012836054898798466 -0.016174938529729843 -0.018360266461968422 -0.006697674281895161 -0.022597061470150948
00000000: 0000 0000 0000 0080 0000 0080 74c0 84bf
00000010: 0000 0000 4954 7abf 0000 0060 fca2 6fbf
00000020: 0000 00e0 28c6 83bf 0000 0060 fb01 623f
00000030: 0000 0080 179a 66bf 0000 00a0 e19e a6bf
00000040: 0000 0060 384f 8abf 0000 00c0 40f4 99bf
00000050: 0000 00a0 b663 94bf 0000 0060 17e2 813f
00000060: 0000 00a0 b51e 97bf 0000 00a0 7ee8 a3bf
00000070: 0000 0040 1fa1 97bf 0000 0080 2e4c a1bf
00000080: 0000 0060 a939 8abf 0000 0040 f898 72bf
00000090: 0000 00e0 bcbd 72bf 0000 0060 3305 95bf
000000a0: 0000 0040 44c5 85bf 0000 00e0 46a5 7a3f
000000b0: 0000 0060 0124 70bf 0000 00a0 4604 653f
000000c0: 0000 0000 0000 0000 0000 0000 0000 0000
000000d0: 0000 0000 0000 0000 0000 0040 6ba0 a5bf
000000e0: 0000 00c0 ce4b 7dbf 0000 0000 0000 0000
000000f0: 0000 0060 5592 91bf 0000 00e0 1503 86bf
00000100: 0000 0000 0000 0000 0000 0000 8cf6 a0bf
00000110: 0000 0040 c665 97bf 0000 0020 5ba6 97bf
00000120: 0000 0020 67f8 92bf 0000 0080 6734 8ebf
00000130: 0000 00a0 1468 6cbf 0000 0000 c006 90bf
00000140: 0000 0080 b8b2 a0bf 0000 0000 0000 0080
00000150: 0000 0040 7489 733f 0000 0020 9193 77bf
00000160: 0000 00e0 6a68 9ebf 0000 00e0 bb23 67bf
00000170: 0000 00e0 9a0c 9dbf 0000 00e0 f655 5ebf
00000180: 0000 0020 8222 72bf 0000 0020 766c 603f
00000190: 0000 00e0 0896 653f 0000 0040 fb38 7bbf
000001a0: 0000 00a0 93b3 a5bf 0000 0000 bdd8 96bf
000001b0: 0000 00e0 cb72 8cbf 0000 0060 b074 99bf
000001c0: 0000 0080 2dda 8dbf 0000 00e0 107b 653f
000001d0: 0000 0040 4ba9 8abf 0000 0000 0000 0000
000001e0: 0000 00c0 9161 8dbf 0000 00e0 d6ef 83bf
000001f0: 0000 0000 0000 0000 0000 0020 7d57 63bf
00000200: 0000 00e0 d982 a0bf 0000 00a0 24b2 8abf
00000210: 0000 00c0 42e9 70bf 0000 0020 c8d9 8bbf
00000220: 0000 0040 0c54 76bf 0000 0080 a2b5 65bf
00000230: 0000 0060 d29d 9bbf 0000 0020 3e90 7dbf
00000240: 0000 00c0 11ff 88bf 0000 0040 1834 82bf
00000250: 0000 00c0 eeb2 9fbf 0000 0080 f11f 97bf
00000260: 0000 0060 e8f0 82bf 0000 00c0 592c a0bf
00000270: 0000 00e0 66d4 60bf 0000 00c0 d7f4 93bf
00000280: 0000 0040 4074 94bf 0000 00e0 690b 9abf
00000290: 0000 0000 0000 0080 0000 0080 7428 8bbf
000002a0: 0000 0060 1527 97bf 0000 0080 bccb 6e3f
000002b0: 0000 0060 54b4 83bf 0000 0040 8d0f 693f
000002c0: 0000 0040 3f94 a7bf 0000 0000 5431 77bf
000002d0: 0000 00a0 737c 643f 0000 0000 87a0 a4bf
000002e0: 0000 0020 37f2 67bf 0000 00a0 75b3 9cbf
000002f0: 0000 00e0 4645 913f 0000 0000 ba58 98bf
00000300: 0000 0080 c786 80bf 0000 00a0 2516 95bf
00000310: 0000 0000 0000 0000 0000 0000 0000 0000
00000320: 0000 0020 c9c4 9ebf 0000 0060 09aa 7bbf
00000330: 0000 00c0 2f4e 80bf 0000 00c0 e378 8fbf
00000340: 0000 0060 3d80 7abf 0000 00c0 21fe 94bf
00000350: 0000 0020 5378 81bf 0000 0000 ce4d 9ebf
00000360: 0000 0040 fee5 7ebf 0000 0040 efe3 94bf
00000370: 0000 00a0 31b1 93bf 0000 00e0 6791 9bbf
00000380: 0000 0000 0000 0080 0000 00a0 0ceb 773f
00000390: 0000 0000 1e91 713f 0000 00c0 1156 99bf
000003a0: 0000 0060 f829 72bf 0000 0020 90b2 5fbf
000003b0: 0000 0040 537a 643f 0000 0000 0000 0080
000003c0: 0000 0040 f47e 96bf 0000 00c0 01cf 96bf
000003d0: 0000 00c0 5e1f 8fbf 0000 0000 0000 0000
000003e0: 0000 00a0 dfa2 97bf 0000 00c0 dfc5 9abf
000003f0: 0000 0060 582a 733f 0000 0040 b2e9 8cbf
00000400: 0000 0040 d52f 9fbf 0000 0000 a70d 94bf
00000410: 0000 00e0 03e0 77bf 0000 00e0 0423 89bf
00000420: 0000 0000 e3a0 673f 0000 0000 b596 5d3f
00000430: 0000 0040 ea31 753f 0000 00e0 dcbd 7dbf
00000440: 0000 00c0 cee7 83bf 0000 0080 d99c 65bf
00000450: 0000 0040 21d4 6dbf 0000 0040 4d9b 89bf
00000460: 0000 0000 27a2 733f 0000 0040 cf43 73bf
00000470: 0000 0000 0000 0080 0000 0080 8494 9abf
00000480: 0000 0020 c717 62bf 0000 00c0 1d49 90bf
00000490: 0000 0000 b34f 8ebf 0000 0080 14bd 6bbf
000004a0: 0000 0060 9597 6bbf 0000 0000 ad0a 80bf
000004b0: 0000 0020 8c12 a0bf 0000 00c0 1b96 90bf
000004c0: 0000 00e0 1ac8 84bf 0000 0040 e3da 83bf
000004d0: 0000 00c0 5531 9cbf 0000 0080 1557 73bf
000004e0: 0000 0000 0000 0000 0000 0060 e7ba 96bf
000004f0: 0000 00a0 83da a1bf 0000 00a0 440c 82bf
00000500: 0000 0040 fcf5 69bf 0000 00e0 4672 95bf
00000510: 0000 00a0 d804 9bbf 0000 0020 1f3b 6fbf
00000520: 0000 0040 e606 83bf 0000 00c0 f454 b2bf
00000530: 0000 0000 b967 82bf 0000 0020 d4e8 8ebf
00000540: 0000 0040 efb3 a8bf 0000 0000 0000 0080
00000550: 0000 0060 68d2 7abf 0000 0060 8388 83bf
00000560: 0000 0060 0551 8cbf 0000 0060 770d 97bf
00000570: 0000 00e0 26a7 68bf 0000 0060 7c8a 9bbf
00000580: 0000 0000 3f58 9dbf 0000 0060 d687 9fbf
00000590: 0000 0000 0000 0080 0000 00c0 1cde 8fbf
000005a0: 0000 0060 165a 9dbf 0000 0020 a2b9 9dbf
000005b0: 0000 0000 0000 0000 0000 0040 e9f3 8dbf
000005c0: 0000 0040 bcac 95bf 0000 0000 f46c 98bf
000005d0: 0000 0000 0000 0000 0000 0000 0000 0080
000005e0: 0000 0000 a3c9 87bf 0000 0060 b2c5 83bf
000005f0: 0000 00c0 e6e1 88bf 0000 00c0 b693 9abf
00000600: 0000 0000 0000 0000 0000 0000 0000 0000
00000610: 0000 0000 0000 0000 0000 0040 969f 603f
00000620: 0000 0060 9f49 93bf 0000 00e0 dc8f 9abf
00000630: 0000 0000 595a 93bf 0000 00c0 3bac 88bf
00000640: 0000 00a0 7c40 87bf 0000 0060 dd1c 8abf
00000650: 0000 0080 9b5b 83bf 0000 00a0 1a4a a0bf
00000660: 0000 0060 edec 82bf 0000 0080 6593 9cbf
00000670: 0000 00c0 2759 9fbf 0000 0000 0000 0000
00000680: 0000 00e0 5e87 70bf 0000 00a0 8066 7abf
00000690: 0000 0040 b2d6 7fbf 0000 0020 3c21 a4bf
000006a0: 0000 0080 d354 80bf 0000 0020 34cd 90bf
000006b0: 0000 0080 ad21 90bf 0000 0040 0a4d 61bf
000006c0: 0000 0080 0efb 75bf 0000 00e0 cd33 90bf
000006d0: 0000 00a0 cd91 91bf 0000 0000 be69 91bf
000006e0: 0000 0000 0000 0000 0000 0060 956f 61bf
000006f0: 0000 0000 0000 0000 0000 00a0 c1f0 79bf
00000700: 0000 0040 dd40 62bf 0000 0080 4f4c 793f
00000710: 0000 0000 0000 0080 0000 00e0 5236 86bf
00000720: 0000 0000 d20c aabf 0000 0060 bcff 5f3f
00000730: 0000 0000 0000 0000 0000 0000 0000 0000
00000740: 0000 0020 1f56 833f 0000 00e0 93a3 91bf
00000750: 0000 0060 e511 70bf 0000 0080 500e 86bf
00000760: 0000 0040 5b38 97bf 0000 0080 5ccb 9ebf
00000770: 0000 0040 6ffe 8c3f 0000 0080 c1bf 90bf
00000780: 0000 00a0 de86 91bf 0000 0000 0000 0000
00000790: 0000 0020 8d68 84bf 0000 00c0 a212 9cbf
000007a0: 0000 0040 4c96 85bf 0000 00a0 7d9b 633f
000007b0: 0000 0000 0000 0000 0000 00c0 0de7 94bf
000007c0: 0000 0000 0000 0080 0000 0000 0000 0000
000007d0: 0000 0040 1075 93bf 0000 0020 ca49 8abf
000007e0: 0000 00c0 2990 90bf 0000 00a0 08cd 92bf
000007f0: 0000 0040 056f 7bbf 0000 0020 af23 97bf
