PyTorch/MNIST/LeNet300100/pruned_weight/CR_80/fc2.bias.npy (npy, 928 bytes, 1 tensors)

array f8 [100]
0	0x3f94f2a9a0000000	0.020456934347748756
1	0x3fadb3a6c0000000	0.0580112561583519
2	0x8000000000000000	-0.0
3	0xbfbea5ed00000000	-0.11971932649612427
4	0x3fa376b9e0000000	0.03801518306136131
5	0xbfbe32ef80000000	-0.1179647147655487
6	0x8000000000000000	-0.0
7	0x3fd25f21c0000000	0.2870563864707947
8	0xbf8b47dda0000000	-0.01332066673785448
9	0x8000000000000000	-0.0
10	0x3fa8cf1dc0000000	0.048455171287059784
11	0x3fa94d2640000000	0.04941672831773758
12	0x3fd5c77e00000000	0.3403010368347168
13	0x3f97f30860000000	0.023388033732771873
14	0xbf918ac220000000	-0.017130883410573006
15	0xbfafcd08c0000000	-0.06211116164922714
16	0x8000000000000000	-0.0
17	0x3fba432dc0000000	0.10258756577968597
18	0x3fc42508a0000000	0.15738017857074738
19	0xbfa4218480000000	-0.03931821882724762
20	0xbfb71f4d60000000	-0.090321384370327
21	0xbfbb229c20000000	-0.10599685460329056
22	0x0000000000000000	0.0
23	0xbf8f4cdf40000000	-0.015283340588212013
24	0x3f9676f500000000	0.021938160061836243
25	0x3fb2324840000000	0.07107974588871002
26	0xbf984642a0000000	-0.02370552159845829
27	0x0000000000000000	0.0
28	0xbf95aa1920000000	-0.021156685426831245
29	0x0000000000000000	0.0
30	0x3fbb0e2620000000	0.10568464547395706
31	0x3fc661b580000000	0.17485684156417847
32	0x3fa6c76dc0000000	0.0444902703166008
33	0x3f918ed5c0000000	0.017146434634923935
34	0xbfb61b33c0000000	-0.08635257184505463
35	0xbf897e6380000000	-0.012448098510503769
36	0xbf8a987de0000000	-0.012986167334020138
37	0x3fa4f8f560000000	0.04096190258860588
38	0x3f9d7c5600000000	0.02879461646080017
39	0x3f9c42e020000000	0.02759885974228382
40	0x0000000000000000	0.0
41	0x3fcd6b2d00000000	0.22983324527740479
42	0x8000000000000000	-0.0
43	0x3fc1a03360000000	0.13770143687725067
44	0x3f909807c0000000	0.016204949468374252
45	0x3fc31e22e0000000	0.14935718476772308
46	0xbfa6668f60000000	-0.043751221150159836
47	0x3fcfa719c0000000	0.24728700518608093
48	0xbf9d209540000000	-0.028444606810808182
49	0x0000000000000000	0.0
50	0xbfbbf2c380000000	-0.10917302966117859
51	0xbf84515fc0000000	-0.009920833632349968
52	0x3fc5387920000000	0.16578592360019684
53	0x0000000000000000	0.0
54	0xbf8e89d620000000	-0.014911339618265629
55	0x3fb4434880000000	0.07915166020393372
56	0x3fa91f9740000000	0.04906914383172989
57	0xbfb9018e20000000	-0.0976799800992012
58	0xbfb200d140000000	-0.07032497227191925
59	0x3fd117dc80000000	0.2670813798904419
60	0xbf9c12f320000000	-0.027416037395596504
61	0x3fbceec340000000	0.1130182296037674
62	0x0000000000000000	0.0
63	0x8000000000000000	-0.0
64	0x3fc45dbf00000000	0.1591109037399292
65	0xbfa53d0b20000000	-0.04148134961724281
66	0x3fa6ab9260000000	0.04427773877978325
67	0xbf8f7f8600000000	-0.015379950404167175
68	0x3f91c04ce0000000	0.017335129901766777
69	0x0000000000000000	0.0
70	0x3faa616a00000000	0.051524460315704346
71	0x3f875fc080000000	0.011413101106882095
72	0x3f9bc8ed60000000	0.02713366411626339
73	0x3fb94669a0000000	0.0987306609749794
74	0xbf9445b1c0000000	-0.01979711279273033
75	0x3fa50c59c0000000	0.041109852492809296
76	0xbfb01d2a00000000	-0.06294500827789307
77	0x0000000000000000	0.0
78	0xbfb99ad180000000	-0.10001859068870544
79	0xbf9bcfea40000000	-0.027160320430994034
80	0xbf91673960000000	-0.016995331272482872
81	0x3fc0d0e2a0000000	0.13137467205524445
82	0x3fa93d08c0000000	0.04929377883672714
83	0xbfaf7d2220000000	-0.06150156632065773
84	0x3fd39e85e0000000	0.3065504729747772
85	0x3fc7f810a0000000	0.18725784122943878
86	0xbfc25c33e0000000	-0.14343880116939545
87	0x0000000000000000	0.0
88	0xbfb2853b20000000	-0.07234544306993484
89	0xbf99c24d20000000	-0.025155263021588326
90	0xbf95f079e0000000	-0.0214251559227705
91	0x3fc9fce6e0000000	0.20303045213222504
92	0xbfc039d740000000	-0.1267651617527008
93	0x3f8065aa40000000	0.008006410673260689
94	0xbfa5689680000000	-0.04181356728076935
95	0x8000000000000000	-0.0
96	0xbfbee2e060000000	-0.12064936012029648
97	0xbfa8690500000000	-0.04767623543739319
98	0x3f9ed2c680000000	0.03010091930627823
99	0xbfac95a100000000	-0.05582907795906067
