PyTorch/MNIST/LeNet300100/pruned_weight/CR_80/fc3.weight.npy (npy, 8128 bytes, 1 tensors)

array (column-major) f8 [10, 100]
000000 00 00 00 00 05 5c d0 3f 00 00 00 e0 76 e4 b1 bf
       0.2556164264678955 -0.06989233940839767
000010 00 00 00 00 47 db b5 3f 00 00 00 00 00 00 00 80
       0.08537715673446655 -0.0
000020 00 00 00 40 fb db ae bf 00 00 00 80 15 3a b8 bf
       -0.06027207523584366 -0.09463629126548767
000030 00 00 00 00 00 00 00 00 00 00 00 60 60 a5 b6 bf
       0.0 -0.08846094459295273
000040 00 00 00 00 00 00 00 00 00 00 00 00 00 00 00 00
       0.0 0.0
000050 00 00 00 20 75 a6 b1 bf 00 00 00 c0 83 24 c0 bf
       -0.06894619017839432 -0.12611433863639832
000060 00 00 00 40 04 88 bf 3f 00 00 00 e0 af 52 cc 3f
       0.1231691986322403 0.22127340734004974
000070 00 00 00 80 b2 60 a3 bf 00 00 00 80 eb 59 bd bf
       -0.037847116589546204 -0.1146533191204071
000080 00 00 00 20 a3 eb a9 bf 00 00 00 20 f7 a4 b6 bf
       -0.05062589421868324 -0.08845467120409012
000090 00 00 00 40 4d 53 c6 3f 00 00 00 80 85 24 b1 bf
       0.1744171679019928 -0.06696352362632751
0000a0 00 00 00 00 00 00 00 80 00 00 00 00 00 00 00 00
       -0.0 0.0
0000b0 00 00 00 00 00 00 00 80 00 00 00 00 00 00 00 00
       -0.0 0.0
0000c0 00 00 00 00 00 00 00 00 00 00 00 00 00 00 00 80
       0.0 -0.0
0000d0 00 00 00 00 00 00 00 80 00 00 00 00 00 00 00 00
       -0.0 0.0
0000e0 00 00 00 00 00 00 00 00 00 00 00 00 00 00 00 80
       0.0 -0.0
0000f0 00 00 00 60 59 18 d2 bf 00 00 00 60 07 e1 e0 3f
       -0.2827361524105072 0.5274693369865417
000100 00 00 00 00 8c ad ce 3f 00 00 00 60 82 b6 d3 bf
       0.2396712303161621 -0.30801448225975037
000110 00 00 00 20 59 5c ba bf 00 00 00 a0 42 4d cc bf
       -0.1029716208577156 -0.22110779583454132
000120 00 00 00 a0 4c 22 cc 3f 00 00 00 20 19 0f c3 bf
       0.21979673206806183 -0.14889825880527496
000130 00 00 00 40 1f bf b9 3f 00 00 00 60 57 3f a8 bf
       0.10057254135608673 -0.047358255833387375
000140 00 00 00 40 15 c7 c1 bf 00 00 00 00 8e 0f 91 bf
       -0.13888803124427795 -0.0166608989238739
000150 00 00 00 a0 1c 18 d0 bf 00 00 00 80 26 9d d1 bf
       -0.2514716684818268 -0.2752166986465454
000160 00 00 00 00 58 b0 d2 3f 00 00 00 e0 7b 51 cf bf
       0.29201316833496094 -0.2446741908788681
000170 00 00 00 c0 d7 db b6 bf 00 00 00 40 db 9b db 3f
       -0.08929203450679779 0.431387722492218
000180 00 00 00 00 00 00 00 00 00 00 00 20 06 ca d3 3f
       0.0 0.309205561876297
000190 00 00 00 20 a0 05 c8 bf 00 00 00 00 d7 3c ba 3f
       -0.18767167627811432 0.10249084234237671
0001a0 00 00 00 40 e5 0d c6 3f 00 00 00 a0 23 42 d6 3f
       0.17229905724525452 0.3477868139743805
0001b0 00 00 00 60 fe ef c2 bf 00 00 00 60 fb eb 9e 3f
       -0.14794902503490448 0.03019707463681698
0001c0 00 00 00 e0 4d 08 c2 bf 00 00 00 e0 b0 c8 cc 3f
       -0.14087842404842377 0.2248746007680893
0001d0 00 00 00 00 49 ba c3 bf 00 00 00 60 58 a2 d0 bf
       -0.1541224718093872 -0.2599087655544281
0001e0 00 00 00 a0 64 2f c0 bf 00 00 00 a0 e9 76 a7 bf
       -0.12644632160663605 -0.045829106122255325
0001f0 00 00 00 60 ab ce 9e bf 00 00 00 e0 36 34 b5 bf
       -0.030085256323218346 -0.08282797783613205
000200 00 00 00 40 9b 75 c4 3f 00 00 00 00 00 00 00 80
       0.15983906388282776 -0.0
000210 00 00 00 00 d6 8d d5 3f 00 00 00 60 38 8a 9c 3f
       0.33678197860717773 0.027871018275618553
000220 00 00 00 20 2e f5 a5 bf 00 00 00 00 03 5d c7 bf
       -0.04288620129227638 -0.18252599239349365
000230 00 00 00 00 bf 08 94 3f 00 00 00 20 7d 07 b9 bf
       0.019564613699913025 -0.09777051955461502
000240 00 00 00 e0 b4 45 ca 3f 00 00 00 80 20 f3 b1 3f
       0.2052522748708725 0.0701160728931427
000250 00 00 00 00 72 80 c0 bf 00 00 00 20 a6 36 bf bf
       -0.1289198398590088 -0.12192762643098831
000260 00 00 00 e0 85 4d c5 bf 00 00 00 00 00 00 00 00
       -0.1664283126592636 0.0
000270 00 00 00 c0 2c f1 d8 3f 00 00 00 e0 61 db c7 bf
       0.3897201418876648 -0.18638251721858978
000280 00 00 00 20 34 6e 97 bf 00 00 00 a0 15 9a b3 bf
       -0.02288133092224598 -0.07656989246606827
000290 00 00 00 60 b9 05 cd 3f 00 00 00 a0 58 30 c0 bf
       0.22673718631267548 -0.12647540867328644
0002a0 00 00 00 00 00 00 00 00 00 00 00 00 00 00 00 00
       0.0 0.0
0002b0 00 00 00 40 d4 c7 ce 3f 00 00 00 e0 2c f8 c6 bf
       0.24047330021858215 -0.1794487088918686
0002c0 00 00 00 20 09 2b b1 bf 00 00 00 00 00 00 00 80
       -0.06706292182207108 -0.0
0002d0 00 00 00 00 00 00 00 00 00 00 00 00 00 00 00 00
       0.0 0.0
0002e0 00 00 00 00 00 00 00 80 00 00 00 00 00 00 00 80
       -0.0 -0.0
0002f0 00 00 00 00 00 00 00 00 00 00 00 00 00 00 00 80
       0.0 -0.0
000300 00 00 00 00 00 00 00 80 00 00 00 00 00 00 00 00
       -0.0 0.0
000310 00 00 00 00 00 00 00 80 00 00 00 00 00 00 00 80
       -0.0 -0.0
000320 00 00 00 40 3e 22 c4 3f 00 00 00 c0 22 19 c7 bf
       0.15729501843452454 -0.1804545819759369
000330 00 00 00 00 7d 0c c6 bf 00 00 00 40 65 8b a2 bf
       -0.17225611209869385 -0.036219753324985504
000340 00 00 00 a0 21 fe d1 3f 00 00 00 80 bf ca bd bf
       0.2811359465122223 -0.11637493968009949
000350 00 00 00 60 62 d6 d6 3f 00 00 00 e0 9c a3 c7 bf
       0.3568349778652191 -0.18468056619167328
000360 00 00 00 60 79 f0 cb bf 00 00 00 e0 43 3b be 3f
       -0.21827618777751923 0.11809181421995163
000370 00 00 00 40 5d 8c d4 3f 00 00 00 80 36 93 96 3f
       0.3210671544075012 0.02204594761133194
000380 00 00 00 c0 b4 3a b1 bf 00 00 00 00 86 e4 ac 3f
       -0.06730203330516815 0.05643099546432495
000390 00 00 00 a0 25 9b c0 bf 00 00 00 80 23 5c b1 bf
       -0.12973470985889435 -0.06781217455863953
0003a0 00 00 00 00 f7 40 98 bf 00 00 00 c0 2c 49 c8 bf
       -0.02368532121181488 -0.1897331178188324
0003b0 00 00 00 40 49 b2 b0 bf 00 00 00 a0 bf e8 be 3f
       -0.0652204304933548 0.12073896080255508
0003c0 00 00 00 40 5e c1 ca bf 00 00 00 60 60 60 c4 bf
       -0.20902612805366516 -0.15919117629528046
0003d0 00 00 00 00 6d 91 ca bf 00 00 00 40 ab 69 d7 3f
       -0.20756304264068604 0.36582452058792114
0003e0 00 00 00 00 79 40 cb bf 00 00 00 e0 5f 3f d4 3f
       -0.21290504932403564 0.31636807322502136
0003f0 00 00 00 40 9e d5 a8 bf 00 00 00 20 4c 43 d0 bf
       -0.0485047772526741 -0.2541075050830841
000400 00 00 00 40 4f de db 3f 00 00 00 80 d2 9b ad bf
       0.4354436993598938 -0.05782945454120636
000410 00 00 00 e0 76 e4 d2 3f 00 00 00 20 6c 7d c7 bf
       0.2951943576335907 -0.18351508677005768
000420 00 00 00 c0 cd 4a c2 bf 00 00 00 00 4e 2d ae bf
       -0.14290782809257507 -0.05893939733505249
000430 00 00 00 a0 03 80 9a bf 00 00 00 60 b5 08 c2 bf
       -0.025878960266709328 -0.14089076220989227
000440 00 00 00 40 6b 97 e1 3f 00 00 00 80 e3 85 c1 bf
       0.5497337579727173 -0.1368984580039978
000450 00 00 00 40 6b b3 af bf 00 00 00 c0 67 af bc bf
       -0.06191573292016983 -0.11205147206783295
000460 00 00 00 e0 f0 85 a4 bf 00 00 00 e0 62 80 93 bf
       -0.040084388107061386 -0.01904444210231304
000470 00 00 00 00 9d 7a d8 3f 00 00 00 00 1c e3 d1 3f
       0.38248372077941895 0.27948665618896484
000480 00 00 00 00 2a c2 d0 bf 00 00 00 20 92 0f c0 bf
       -0.26185083389282227 -0.1254751831293106
000490 00 00 00 60 12 57 c2 bf 00 00 00 a0 45 d6 d0 3f
       -0.1432822197675705 0.26307812333106995
0004a0 00 00 00 a0 a3 ce a9 3f 00 00 00 80 46 74 d7 bf
       0.05040465667843819 -0.36647188663482666
0004b0 00 00 00 00 00 00 00 00 00 00 00 80 63 31 cb 3f
       0.0 0.2124447226524353
0004c0 00 00 00 c0 ee 1b c3 3f 00 00 00 80 92 c3 b6 bf
       0.14928993582725525 -0.0889216959476471
0004d0 00 00 00 20 e6 52 bd bf 00 00 00 60 9c 26 c0 bf
       -0.11454618722200394 -0.1261783093214035
0004e0 00 00 00 40 d4 86 a2 bf 00 00 00 c0 4f 82 ca 3f
       -0.03618491441011429 0.20710179209709167
0004f0 00 00 00 20 49 ae bc bf 00 00 00 20 89 b1 b7 bf
       -0.1120343878865242 -0.09255272895097733
000500 00 00 00 00 00 00 00 00 00 00 00 00 00 00 00 00
       0.0 0.0
000510 00 00 00 00 00 00 00 80 00 00 00 00 00 00 00 80
       -0.0 -0.0
000520 00 00 00 00 00 00 00 00 00 00 00 00 00 00 00 80
       0.0 -0.0
000530 00 00 00 00 00 00 00 00 00 00 00 00 00 00 00 80
       0.0 -0.0
000540 00 00 00 00 00 00 00 80 00 00 00 00 00 00 00 80
       -0.0 -0.0
000550 00 00 00 00 e4 61 a6 bf 00 00 00 00 a7 2e c5 bf
       -0.043715596199035645 -0.16548621654510498
000560 00 00 00 80 ec df c6 bf 00 00 00 40 a3 fa cc 3f
       -0.17870861291885376 0.22639885544776917
000570 00 00 00 40 17 ec c1 bf 00 00 00 80 77 9c c2 bf
       -0.14001742005348206 -0.14539998769760132
000580 00 00 00 40 6e 31 b8 bf 00 00 00 60 e7 c8 c1 3f
       -0.09450425207614899 0.1389435976743698
000590 00 00 00 40 84 23 a6 bf 00 00 00 c0 ec 39 db 3f
       -0.04323972016572952 0.4254104495048523
0005a0 00 00 00 c0 56 8c d4 3f 00 00 00 e0 60 f9 a5 3f
       0.32106560468673706 0.04291823133826256
0005b0 00 00 00 c0 9b 6b d0 3f 00 00 00 c0 98 16 c4 bf
       0.25656789541244507 -0.15693959593772888
0005c0 00 00 00 e0 aa bd cd bf 00 00 00 c0 9b 07 ba bf
       -0.232350692152977 -0.10167859494686127
0005d0 00 00 00 00 00 00 00 80 00 00 00 60 b5 55 c0 bf
       -0.0 -0.12761561572551727
0005e0 00 00 00 40 86 d0 c5 3f 00 00 00 80 cf 50 c3 bf
       0.1704261600971222 -0.1509036421775818
0005f0 00 00 00 00 00 00 00 80 00 00 00 00 00 00 00 80
       -0.0 -0.0
000600 00 00 00 00 00 00 00 80 00 00 00 00 00 00 00 80
       -0.0 -0.0
000610 00 00 00 00 00 00 00 00 00 00 00 00 00 00 00 00
       0.0 0.0
000620 00 00 00 00 59 f6 a3 bf 00 00 00 00 58 1d cb 3f
       -0.038988858461380005 0.21183300018310547
000630 00 00 00 00 00 00 00 80 00 00 00 80 54 e2 af bf
       -0.0 -0.06227363646030426
000640 00 00 00 00 49 e7 b9 bf 00 00 00 a0 b6 4e c2 3f
       -0.1011853814125061 0.1430271416902542
000650 00 00 00 c0 58 ab d1 3f 00 00 00 c0 78 ca c5 3f
       0.27608317136764526 0.17024144530296326
000660 00 00 00 40 8c 3c bc bf 00 00 00 60 21 fe d0 bf
       -0.11029888689517975 -0.2655108869075775
000670 00 00 00 a0 b4 a4 be bf 00 00 00 00 00 b0 cb 3f
       -0.11970070749521255 0.21630859375
000680 00 00 00 80 a8 8c bc bf 00 00 00 e0 76 44 be bf
       -0.11152127385139465 -0.11823218315839767
000690 00 00 00 00 6d d4 b4 bf 00 00 00 40 06 46 d5 3f
       -0.08136636018753052 0.3323989510536194
0006a0 00 00 00 80 0f 08 cf bf 00 00 00 e0 85 ff c5 bf
       -0.24243348836898804 -0.1718604415655136
0006b0 00 00 00 e0 52 80 b1 3f 00 00 00 e0 43 95 ab 3f
       0.06836431473493576 0.053873177617788315
0006c0 00 00 00 80 73 4e c0 bf 00 00 00 60 2c 55 cf 3f
       -0.12739413976669312 0.24478678405284882
0006d0 00 00 00 80 19 4e b3 bf 00 00 00 00 00 00 00 80
       -0.07541045546531677 -0.0
0006e0 00 00 00 80 32 42 d2 3f 00 00 00 40 82 64 b0 bf
       0.28529036045074463 -0.064033642411232
0006f0 00 00 00 e0 9e 17 c7 bf 00 00 00 20 ed 3c b1 bf
       -0.18040834367275238 -0.06733591109514236
000700 00 00 00 00 00 00 00 80 00 00 00 e0 f2 7d c3 bf
       -0.0 -0.15228115022182465
000710 00 00 00 e0 04 24 c6 3f 00 00 00 60 72 5a c1 bf
       0.17297421395778656 -0.13557271659374237
000720 00 00 00 80 5b 14 bc bf 00 00 00 e0 cf 6e d1 3f
       -0.10968562960624695 0.27238842844963074
000730 00 00 00 20 09 39 ba 3f 00 00 00 20 3e d9 a6 bf
       0.10243279486894608 -0.044626180082559586
000740 00 00 00 20 5e 2d c7 bf 00 00 00 40 09 a0 ba bf
       -0.18107201159000397 -0.10400445759296417
000750 00 00 00 60 37 10 c3 3f 00 00 00 e0 4a f4 c4 bf
       0.14893238246440887 -0.16370521485805511
000760 00 00 00 80 d6 8e aa 3f 00 00 00 a0 ba d8 c2 3f
       0.05187101662158966 0.14723904430866241
000770 00 00 00 20 5f 21 be bf 00 00 00 60 55 25 bf 3f
       -0.11769670993089676 0.1216634139418602
000780 00 00 00 00 00 00 00 00 00 00 00 00 00 00 00 80
       0.0 -0.0
000790 00 00 00 00 00 00 00 80 00 00 00 00 00 00 00 80
       -0.0 -0.0
0007a0 00 00 00 00 00 00 00 00 00 00 00 00 00 00 00 00
       0.0 0.0
0007b0 00 00 00 00 00 00 00 80 00 00 00 00 00 00 00 80
       -0.0 -0.0
0007c0 00 00 00 00 00 00 00 80 00 00 00 00 00 00 00 80
       -0.0 -0.0
0007d0 00 00 00 00 00 00 00 80 00 00 00 a0 bf f7 bb bf
       -0.0 -0.10924909263849258
0007e0 00 00 00 20 83 91 b3 3f 00 00 00 a0 d9 e3 b1 3f
       0.07643909007310867 0.06988296657800674
0007f0 00 00 00 00 b3 6a a3 3f 00 00 00 60 91 ff b8 bf
       0.0379234254360199 -0.09764965623617172
