PyTorch/MNIST/LeNet5/pruned_weight/CR_35/conv2.weight.npy (npy, 200128 bytes, 1 tensors)

array f8 [50, 20, 5, 5]
-0.03845792562824357 -0.0 -0.03378710670013163 0.0 -0.03600582981967815 -0.0 -0.0 -0.0
-0.0 -0.0 -0.0 0.0 -0.0 -0.0 -0.050482081732830864 -0.0
-0.0 0.0 -0.05188548849514518 -0.0 0.0 -0.0 0.0 0.0
-0.029654256549960678 -0.07388149204074068 -0.09202978021829722 -0.08893217001639186 -0.09227596636316093 -0.0 -0.05645695980646792 -0.08073773550529495
-0.13372132950621562 -0.1231827789270028 -0.08826119450333181 -0.04126844665726992 -0.08940991417863309 -0.21196473802501714 -0.10969613090617258 -0.11970321075193624
-0.0 -0.09159295668243317 -0.09929650637236875 -0.09777153766636104 -0.06540028705452983 -0.030360923935436546 -0.09719775019914323 -0.10624980459219557
-0.10766700177138588 -0.0 -0.06050193619275035 -0.07604485330601563 -0.09457565057258677 -0.08954006468644593 -0.09757198339326578 -0.04022519304528682
-0.07512370090925913 0.0 -0.07305988055367152 -0.0875676519000308 0.0 -0.03855553836888248 -0.05420678766026299 -0.05814649654433879
-0.06201922868294929 -0.044348639605061635 -0.060592307919343114 -0.08263745719631288 -0.07524129030255722 -0.0 -0.03912217796458162 -0.06850219020918757
-0.05918090374171925 -0.09761498017661552 -0.07021601990845738 -0.03125554396713426 -0.04146017649211231 -0.0 -0.06098203001962332 -0.06391583718807681
-0.05336632733236968 -0.049762309122179715 -0.06598538472496784 -0.06190702965216133 -0.049885818106801594 0.0 -0.04225592102892506 -0.029349521211159413
0.0 -0.0 -0.038554205068479064 -0.03642817727831016 -0.04852668215912104 -0.0 -0.0 -0.05941404190221533
-0.051340662395432446 -0.0 -0.04273527343065098 -0.03659222702496123 -0.038726854895060114 -0.020783024709857045 -0.04177636898291226 -0.05034145158593617
-0.04510437253987476 -0.0 0.0 -0.07687084627366403 -0.062164437830176666 0.0 -0.0 -0.0567898331081409
-0.06187817174937038 0.0 -0.04614781202990059 -0.05008013794670774 -0.041214930952113704 0.0 -0.0 -0.057305463857005634
-0.029718671527490415 -0.06072189563623964 -0.039543095995782096 -0.06784936176461542 -0.041748395704360064 0.0 -0.0 0.0
0.0 -0.0 -0.0 0.0 0.0 -0.0 -0.03894406443146181 0.0
0.0 -0.0 0.0 -0.0 -0.0 -0.0 0.0 0.0
-0.0 -0.0 -0.0 -0.0 -0.0 0.0 -0.07752681619962232 -0.0912707434456479
-0.10991660479635357 -0.11010301542285106 -0.08774577140218298 -0.0586708998391714 -0.10001788049504512 -0.199504127075258 -0.09266226807471867 -0.11993131139129787
-0.06855348025138142 -0.08499930649880127 -0.06452094795992025 -0.08313426548562575 -0.05035564500809642 -0.04448746421765293 -0.10533348026142164 -0.08943403450768983
-0.06570134625872015 0.0 -0.08301975199259459 -0.10574410400471379 -0.12955507135677635 -0.10755712100714732 -0.04615496687242171 -0.0639968801800519
-0.06421752888495291 0.0 -0.06209643301937717 -0.039421623270584405 -0.04347553903171786 -0.04457314932102463 -0.048400560112654034 -0.08008569096739393
-0.06074578401157282 -0.07309127600140641 -0.04743179896377114 -0.08336277916080803 -0.07449816698976797 -0.0 -0.041304415869973354 -0.0680125748093019
-0.05186680817245182 0.0 -0.022585661049376426 -0.0 -0.06754818220929515 -0.0 -0.027124488987126938 0.0
-0.05551631199671192 -0.03414845393412236 -0.04726837447998378 0.0 -0.057427010649917065 -0.0 -0.07387051936700573 -0.03441153475955616
-0.024185143882732518 -0.0 0.0 -0.04084465832796269 -0.04095521674773295 -0.0 -0.0 0.0
-0.03597158040912518 0.0 -0.026099374758608462 -0.0 -0.05715270418099294 -0.060202970667774025 -0.053730017789035855 0.0
-0.031498392716173385 0.0 -0.0 -0.04257980824502283 -0.05784339034153163 -0.0 -0.05063111206335158 -0.05647329726798489
-0.060278280600329914 0.0 0.0 -0.057416698527504195 -0.03359260768034744 -0.0 -0.0 -0.052327703899720746
-0.039216606919609376 -0.0443193312380572 -0.04053902270834442 0.0 -0.06113009574906414 -0.061146743802737547 -0.038295305534575164 -0.04797999041306866
-0.04385139838347385 -0.0 0.0 0.0 -0.0 -0.0 -0.042324967634655764 -0.0
00000000: 00cc b0d9 c1b0 a3bf 0000 0000 0000 0080
00000010: 0068 9b2c 8b4c a1bf 0000 0000 0000 0000
00000020: 80eb 142b 5b6f a2bf 0000 0000 0000 0080
00000030: 0000 0000 0000 0080 0000 0000 0000 0080
00000040: 0000 0000 0000 0080 0000 0000 0000 0080
00000050: 0000 0000 0000 0080 0000 0000 0000 0000
00000060: 0000 0000 0000 0080 0000 0000 0000 0080
00000070: 002c 2794 c9d8 a9bf 0000 0000 0000 0080
00000080: 0000 0000 0000 0080 0000 0000 0000 0000
00000090: 0080 7218 bc90 aabf 0000 0000 0000 0080
000000a0: 0000 0000 0000 0000 0000 0000 0000 0080
000000b0: 0000 0000 0000 0000 0000 0000 0000 0000
000000c0: 00f0 4678 af5d 9ebf 003c 18c0 e5e9 b2bf
000000d0: 00b0 4b80 438f b7bf 0060 c839 42c4 b6bf
000000e0: 0090 bcd1 659f b7bf 0000 0000 0000 0080
000000f0: 0030 0038 ede7 acbf 0060 8c6d 3aab b4bf
00000100: 00e0 80d0 c71d c1bf 0000 ec16 e888 bfbf
00000110: 00d0 e51f 4998 b6bf 00d8 7f49 2321 a5bf
00000120: 80dc 5571 91e3 b6bf 0080 dc18 a921 cbbf
00000130: 0060 bdae 0b15 bcbf 00e0 679f dea4 bebf
00000140: 0000 0000 0000 0080 00b8 7ed1 a272 b7bf
00000150: 00f4 79ef 7e6b b9bf 00b4 c134 8e07 b9bf
00000160: 0058 0cbe 12be b0bf 0024 841d ef16 9fbf
00000170: 00a0 59a6 f3e1 b8bf 000c eeeb 2f33 bbbf
00000180: 006b 778b 1090 bbbf 0000 0000 0000 0080
00000190: 00c8 951a 1cfa aebf 007c faed ac77 b3bf
000001a0: 000a 351e 1c36 b8bf 0090 8201 19ec b6bf
000001b0: 0010 ae3d 7afa b8bf 80a7 3581 6598 a4bf
000001c0: 004c 8f8e 4e3b b3bf 0000 0000 0000 0000
000001d0: 00b0 a065 0db4 b2bf 0020 1969 d56a b6bf
000001e0: 0000 0000 0000 0000 0080 bf30 8dbd a3bf
000001f0: 00b0 71f8 fdc0 abbf 00e0 11aa 60c5 adbf
00000200: 0034 d5fd fbc0 afbf 00a0 7369 ddb4 a6bf
00000210: 0034 ce79 f405 afbf 0030 1578 ba27 b5bf
00000220: 0088 2861 0343 b3bf 0000 0000 0000 0080
00000230: 80f5 cf75 d207 a4bf 0020 a70a 5c89 b1bf
00000240: 00a0 3c9c f54c aebf 0050 759b 4bfd b8bf
00000250: 0080 2955 adf9 b1bf 00a8 5006 ba00 a0bf
00000260: 0072 3dac 443a a5bf 0000 0000 0000 0080
00000270: 00ec 2761 0939 afbf 0054 6bce c95c b0bf
00000280: 0048 33cd d452 abbf 00a4 8104 727a a9bf
00000290: 0060 680d 6be4 b0bf 0040 7f37 47b2 afbf
000002a0: 0018 9b4a a28a a9bf 0000 0000 0000 0000
000002b0: 0060 c36d 91a2 a5bf 0050 0507 cd0d 9ebf
000002c0: 0000 0000 0000 0000 0000 0000 0000 0080
000002d0: 00e8 c873 60bd a3bf 0060 20cc b6a6 a2bf
000002e0: 00b0 b641 7dd8 a8bf 0000 0000 0000 0080
000002f0: 0000 0000 0000 0080 0050 c96d 846b aebf
00000300: 0000 e3c3 5249 aabf 0000 0000 0000 0080
00000310: 0060 8ad3 65e1 a5bf 0054 b864 37bc a2bf
00000320: 00a0 809e 01d4 a3bf 0060 c32d 2548 95bf
00000330: 00f2 0d55 b663 a5bf 00b8 63d0 5ac6 a9bf
00000340: 0044 ee99 eb17 a7bf 0000 0000 0000 0080
00000350: 0000 0000 0000 0000 00e0 c2ca cead b3bf
00000360: 00e0 e866 04d4 afbf 0000 0000 0000 0000
00000370: 0000 0000 0000 0080 00b8 e397 8e13 adbf
00000380: 00e8 ffe7 7eae afbf 0000 0000 0000 0000
00000390: 0098 e69e afa0 a7bf 0010 5295 1aa4 a9bf
000003a0: 00ab 1799 1f1a a5bf 0000 0000 0000 0000
000003b0: 0000 0000 0000 0080 00c0 4b4a 2457 adbf
000003c0: 0020 2a49 926e 9ebf e04a d1b7 f016 afbf
000003d0: 0040 2b20 fe3e a4bf 0060 d565 935e b1bf
000003e0: 00e0 6bb4 0b60 a5bf 0000 0000 0000 0000
000003f0: 0000 0000 0000 0080 0000 0000 0000 0000
00000400: 0000 0000 0000 0000 0000 0000 0000 0080
00000410: 0000 0000 0000 0080 0000 0000 0000 0000
00000420: 0000 0000 0000 0000 0000 0000 0000 0080
00000430: 0080 36f6 79f0 a3bf 0000 0000 0000 0000
00000440: 0000 0000 0000 0000 0000 0000 0000 0080
00000450: 0000 0000 0000 0000 0000 0000 0000 0080
00000460: 0000 0000 0000 0080 0000 0000 0000 0080
00000470: 0000 0000 0000 0000 0000 0000 0000 0000
00000480: 0000 0000 0000 0080 0000 0000 0000 0080
00000490: 0000 0000 0000 0080 0000 0000 0000 0080
000004a0: 0000 0000 0000 0080 0000 0000 0000 0000
000004b0: 00f0 2324 ccd8 b3bf 0040 2efa 845d b7bf
000004c0: 0040 e39e 7e23 bcbf 00a0 6e12 b62f bcbf
000004d0: 00e0 88c2 8176 b6bf 0080 12b8 1c0a aebf
000004e0: 00d0 bd95 c59a b9bf 0046 9aea 5989 c9bf
000004f0: 0040 f4e2 b6b8 b7bf 0028 3184 d1b3 bebf
00000500: 00e8 b48b b88c b1bf 0054 98b9 83c2 b5bf
00000510: 0010 65e1 7184 b0bf 0010 7087 4948 b5bf
00000520: 0020 f510 37c8 a9bf 0028 cb97 0fc7 a6bf
00000530: 008c e58c 22f7 babf 0020 5c1d 26e5 b6bf
00000540: 0000 7cad cdd1 b0bf 0000 0000 0000 0000
00000550: 00f0 ba4f c840 b5bf 00f0 71ac 0b12 bbbf
00000560: 0010 41b5 4295 c0bf 0078 2d0d dd88 bbbf
00000570: 00b0 87b2 9fa1 a7bf c05a 6b7b 1962 b0bf
00000580: 000c 645a 8f70 b0bf 0000 0000 0000 0000
00000590: 0070 088a 1acb afbf 00a0 672d 122f a4bf
000005a0: 0068 a204 6d42 a6bf 0020 3ab5 4ad2 a6bf
000005b0: 0078 954d f5c7 a8bf 0020 95ef 7e80 b4bf
000005c0: 0030 6647 121a afbf 0088 0c20 1cb6 b2bf
000005d0: 0000 ae12 fb48 a8bf 0008 335a 4357 b5bf
000005e0: 803f d5d6 4f12 b3bf 0000 0000 0000 0080
000005f0: 0010 af36 da25 a5bf 00d0 85a8 4569 b1bf
00000600: e079 b249 498e aabf 0000 0000 0000 0000
00000610: 0030 430e b220 97bf 0000 0000 0000 0080
00000620: 8040 7e71 d64a b1bf 0000 0000 0000 0080
00000630: 0050 7ba4 85c6 9bbf 0000 0000 0000 0000
00000640: 0040 d750 a26c acbf 0048 b6f9 e77b a1bf
00000650: 00a0 0d75 8f33 a8bf 0000 0000 0000 0000
00000660: 0000 4cb9 1267 adbf 0000 0000 0000 0080
00000670: 00e0 d1a8 2de9 b2bf 0080 cb80 639e a1bf
00000680: 0000 1a88 fdc3 98bf 0000 0000 0000 0080
00000690: 0000 0000 0000 0000 0044 784f 97e9 a4bf
000006a0: 0070 1009 15f8 a4bf 0000 0000 0000 0080
000006b0: 0000 0000 0000 0080 0000 0000 0000 0000
000006c0: 00a0 e2f2 dd6a a2bf 0000 0000 0000 0000
000006d0: 0018 2364 cbb9 9abf 0000 0000 0000 0080
000006e0: 00b0 ab86 1e43 adbf 00c0 477c ecd2 aebf
000006f0: 0050 6f3a 8082 abbf 0000 0000 0000 0000
00000700: 0060 2fad 8e20 a0bf 0000 0000 0000 0000
00000710: 0000 0000 0000 0080 00c0 c347 05cd a5bf
00000720: 0000 9d1b a69d adbf 0000 0000 0000 0080
00000730: 00c5 f134 52ec a9bf 0000 ba69 11ea acbf
00000740: 80d0 ac77 cbdc aebf 0000 0000 0000 0000
00000750: 0000 0000 0000 0000 0000 d7b4 b865 adbf
00000760: 00b8 bfde 0c33 a1bf 0000 0000 0000 0080
00000770: 0000 0000 0000 0080 0020 d961 b2ca aabf
00000780: 0010 5cf8 3214 a4bf 0000 7ffc 05b1 a6bf
00000790: 0000 7de1 87c1 a4bf 0000 0000 0000 0000
000007a0: 0050 16a4 714c afbf 0080 c741 a04e afbf
000007b0: 0000 b939 719b a3bf 0080 5f53 d590 a8bf
000007c0: 00bc e1c3 b073 a6bf 0000 0000 0000 0080
000007d0: 0000 0000 0000 0000 0000 0000 0000 0000
000007e0: 0000 0000 0000 0080 0000 0000 0000 0080
000007f0: 0018 973f 9eab a5bf 0000 0000 0000 0080
