PyTorch/MNIST/LeNet5/pruned_weight/CR_70/conv2.bias.npy (npy, 528 bytes, 1 tensors)

array f8 [50]
-0.1050723399398521 -0.0628625095796167 -0.07237043835075241 -0.057315019330971495 -0.15900665071376352 -0.07706633406334618 -0.061877615811141595 -0.047855750408530184
-0.0 -0.0 -0.0772337416665323 -0.0 -0.1268951014524191 -0.05637922047719712 -0.02507174377751653 0.0
-0.05044363333468027 -0.06088596886945652 -0.040168356674155525 -0.0 -0.04941495748741431 -0.0 -0.052077238822135996 -0.03546686761910678
-0.05364084752543796 -0.057666577552812015 -0.07733284462727852 0.0 -0.0 -0.04644255682586618 -0.06216100031325933 -0.0
-0.0360558241921467 -0.05507690844069657 0.04570304495521782 -0.0 -0.019761253875557827 0.0 0.080651449751862 0.04500563597184737
-0.06982636559547473 -0.04537908186154027 -0.07207553403782185 -0.05124810304641869 -0.0 -0.055431798961379286 -0.0 -0.08029399949691651
0.0 -0.12527418449508332
00000000: 0080 c157 05e6 babf 00f8 c9e6 c117 b0bf
00000010: 00e6 e979 de86 b2bf 0038 31eb 6458 adbf
00000020: 00c0 5476 545a c4bf 00b8 6c88 9eba b3bf
00000030: 00d0 8640 6cae afbf 0040 dc85 8c80 a8bf
00000040: 0000 0000 0000 0080 0000 0000 0000 0080
00000050: 0000 9b2a 97c5 b3bf 0000 0000 0000 0080
00000060: 0060 6143 193e c0bf 0040 3fb8 bcdd acbf
00000070: 0000 503e 68ac 99bf 0000 0000 0000 0000
00000080: 0080 ed76 bfd3 a9bf 00c0 281a 722c afbf
00000090: 80c6 7f64 f290 a4bf 0000 0000 0000 0080
000000a0: 00f0 aed4 ea4c a9bf 0000 0000 0000 0080
000000b0: 00d0 362b dea9 aabf 0000 0899 b628 a2bf
000000c0: 00f5 b32b d076 abbf 00ba 5241 7986 adbf
000000d0: 00b0 94d6 15cc b3bf 0000 0000 0000 0000
000000e0: 0000 0000 0000 0080 0060 6b9d 51c7 a7bf
000000f0: 803b dd0e 91d3 afbf 0000 0000 0000 0080
00000100: 00a0 78b3 e875 a2bf 0000 0961 0a33 acbf
00000110: 0010 d2b6 6366 a73f 0000 0000 0000 0080
00000120: 0070 7e4c 4b3c 94bf 0000 0000 0000 0000
00000130: 002a 0fcb 92a5 b43f 0000 458d fa0a a73f
00000140: 0090 a104 24e0 b1bf 0020 0951 ed3b a7bf
00000150: 00c0 88cd 8a73 b2bf 0000 22fd 303d aabf
00000160: 0000 0000 0000 0080 0028 6587 8e61 acbf
00000170: 0000 0000 0000 0080 0080 e7c5 258e b4bf
00000180: 0000 0000 0000 0000 0040 b806 fc08 c0bf
